models/GRU_model_mse.onnx (onnx, 43267 bytes, 4 tensors)

sequential_2_1/gru_1/gru_cell_1/split/ReadVariableOp/resource:0 f4 [2, 150]
000000 ec 30 6c be 4a eb 7c be 18 18 a0 be e8 4a 4a be
       -0.23065537 -0.2469913 -0.31268382 -0.19755137
000010 f9 33 31 3e f5 06 6e be 90 66 82 be 9c e1 bf 3d
       0.17304982 -0.23244841 -0.25468874 0.093692034
000020 3c 80 ff bd 8f 76 67 be 14 87 c7 bd 2f ba ac be
       -0.12475631 -0.2260382 -0.09742561 -0.33735797
000030 af 50 73 be b2 4e 64 be 1e 08 7a be 5b 56 68 be
       -0.23761247 -0.22295645 -0.24417159 -0.22689192
000040 ac 8a 98 be cb 6e 05 3e a0 5f 53 3d 57 2e b4 be
       -0.29793298 0.13030545 0.051604867 -0.35191604
000050 2a 1c 6a be 51 32 f7 bd 55 97 a2 be 46 ed eb 3d
       -0.22862306 -0.12070144 -0.31756082 0.11519866
000060 9f 37 61 3d 02 d0 2a be 63 b0 a5 be ff 85 9e be
       0.054984685 -0.16680911 -0.32361135 -0.30961606
000070 3b ac 1e be ff b8 6a 3d 7d 85 75 be 2c 69 d5 be
       -0.15495388 0.057305332 -0.23976703 -0.41681802
000080 ee d6 62 be 01 f3 bb be 8b b4 14 3e 2e 39 77 be
       -0.22152302 -0.36708835 0.14521997 -0.24142906
000090 d3 6f 52 3e ef 1d e9 bd ba a8 11 be b9 6f 8b be
       0.2055047 -0.113826625 -0.1422452 -0.27233675
0000a0 63 e1 61 be 7d 76 79 be 57 67 93 be a2 71 70 be
       -0.22058634 -0.24361606 -0.2878978 -0.23480847
0000b0 7d cc b4 be e1 06 2c 3e 6f 18 01 be a8 4a 6a be
       -0.35312262 0.16799499 -0.12606977 -0.22880042
0000c0 43 7f ae be d3 9f 90 be ac 14 41 3c 88 09 4e bc
       -0.34081468 -0.28246936 0.011784714 -0.012575515
0000d0 3c ed d8 3c f6 b0 5a ba a4 9e cb 3a d7 a3 3f 3c
       0.02648031 -0.0008342409 0.001553495 0.011696777
0000e0 b0 d1 57 3c 86 82 c0 bb 4d 68 9c 3b 14 6f a1 3a
       0.013172552 -0.0058749346 0.004773176 0.0012316429
0000f0 2e c2 3e 3e 5a 7e 07 3e 3c 70 c3 3d 3b f4 54 3c
       0.18628761 0.13231793 0.095428914 0.012997682
000100 d7 68 97 bb 48 a5 02 3c 48 e0 74 3a 18 ac cc bc
       -0.004620652 0.007973976 0.0009341282 -0.024984404
000110 64 25 e9 3c d0 5e b8 3e ea 3f 8f 3c ce 2c 36 3c
       0.028460212 0.36009836 0.017486531 0.011119081
000120 f2 1d 83 3e a1 05 b8 3c 1a b0 25 3d b8 bb 46 3d
       0.25608784 0.022463622 0.040451147 0.048518866
000130 48 60 5c 3d ec 06 60 3d e0 68 81 3c 03 f7 a3 3d
       0.05380276 0.0546941 0.015797079 0.08006098
000140 c1 6d 48 3d 3a 36 95 3d 66 c3 75 3c 65 86 49 bc
       0.048932794 0.072857335 0.0150002 -0.012300109
000150 f4 44 4f 39 3b 46 73 bc d1 06 e4 3c 6c 65 0e 3d
       0.00019766745 -0.014848287 0.027835282 0.034764692
000160 21 12 8a 3b a6 5f cb 3c 03 66 75 3d b5 dd af 3b
       0.004213587 0.024825882 0.05991174 0.0053670057
000170 af 6b 6c 3d dd f3 e4 3c b6 c3 41 bb e8 c4 3a 3d
       0.057719883 0.027948314 -0.0029566116 0.04559794
000180 a8 92 10 3e 75 73 9f 3c 22 59 90 3e d1 42 cd 3c
       0.14118445 0.019464234 0.28193003 0.025056275
000190 6b fa 3c 3c 13 3c 0d 3c dc 75 45 3c 46 b2 8f 3c
       0.011534314 0.00862028 0.012052026 0.017541062
0001a0 d0 25 b5 bb e8 b7 33 bc e9 9d 54 bc e7 32 e5 3a
       -0.0055281892 -0.01096914 -0.012977102 0.0017486484
0001b0 bf 84 3e bc ef f4 b3 3c 04 23 d1 bc 1c 8d a6 bc
       -0.011628329 0.02196738 -0.025529392 -0.020330958
0001c0 db 75 19 3d 3d b4 26 3c e0 40 13 bc c6 5e 60 bc
       0.03746591 0.010174808 -0.008987635 -0.013694471
0001d0 5f 5e c8 bc 62 07 a7 bb fb 8f 35 3c cf b7 12 bd
       -0.024459062 -0.0050973156 0.011081691 -0.035819825
0001e0 17 ce 8a 3c 8c d2 8e bc 53 da 1d bd ea ff 89 bb
       0.016943974 -0.017434381 -0.03853829 -0.0042114155
0001f0 14 84 a2 bc ce 00 fa 3c 10 05 f6 bc 78 e1 90 3c
       -0.01983837 0.030517962 -0.03003171 0.017685637
000200 b8 76 f3 bc b1 6c 6e bb ea 72 13 3c ae 6a 10 bd
       -0.029719695 -0.0036380703 0.008999566 -0.035257988
000210 98 6a 1c bc 70 43 9b bc 3a 97 4d bb 2c 83 88 bc
       -0.009546898 -0.018953055 -0.0031370656 -0.01666411
000220 e9 2d 05 3c ff 32 86 bb 18 88 7d bc bc 79 44 3c
       0.008128622 -0.0040954347 -0.015474342 0.011991914
000230 a6 27 e1 bb 6b 80 31 3c a6 6e 95 3c 54 eb df 3b
       -0.0068711815 0.01083384 0.018241238 0.006833473
000240 e2 2f 6b bc 73 db 26 bc 3d ac a9 bc 68 2e 19 3c
       -0.014354678 -0.010184157 -0.020712012 0.009349443
000250 36 d4 e7 3c 18 43 46 3c ec 30 6c be 4a eb 7c be
       0.028299432 0.012100957 -0.23065537 -0.2469913
000260 18 18 a0 be e8 4a 4a be f9 33 31 3e f5 06 6e be
       -0.31268382 -0.19755137 0.17304982 -0.23244841
000270 90 66 82 be 9c e1 bf 3d 3c 80 ff bd 8f 76 67 be
       -0.25468874 0.093692034 -0.12475631 -0.2260382
000280 14 87 c7 bd 2f ba ac be af 50 73 be b2 4e 64 be
       -0.09742561 -0.33735797 -0.23761247 -0.22295645
000290 1e 08 7a be 5b 56 68 be ac 8a 98 be cb 6e 05 3e
       -0.24417159 -0.22689192 -0.29793298 0.13030545
0002a0 a0 5f 53 3d 57 2e b4 be 2a 1c 6a be 51 32 f7 bd
       0.051604867 -0.35191604 -0.22862306 -0.12070144
0002b0 55 97 a2 be 46 ed eb 3d 9f 37 61 3d 02 d0 2a be
       -0.31756082 0.11519866 0.054984685 -0.16680911
0002c0 63 b0 a5 be ff 85 9e be 3b ac 1e be ff b8 6a 3d
       -0.32361135 -0.30961606 -0.15495388 0.057305332
0002d0 7d 85 75 be 2c 69 d5 be ee d6 62 be 01 f3 bb be
       -0.23976703 -0.41681802 -0.22152302 -0.36708835
0002e0 8b b4 14 3e 2e 39 77 be d3 6f 52 3e ef 1d e9 bd
       0.14521997 -0.24142906 0.2055047 -0.113826625
0002f0 ba a8 11 be b9 6f 8b be 63 e1 61 be 7d 76 79 be
       -0.1422452 -0.27233675 -0.22058634 -0.24361606
000300 57 67 93 be a2 71 70 be 7d cc b4 be e1 06 2c 3e
       -0.2878978 -0.23480847 -0.35312262 0.16799499
000310 6f 18 01 be a8 4a 6a be 43 7f ae be d3 9f 90 be
       -0.12606977 -0.22880042 -0.34081468 -0.28246936
000320 ac 14 41 3c 88 09 4e bc 3c ed d8 3c f6 b0 5a ba
       0.011784714 -0.012575515 0.02648031 -0.0008342409
000330 a4 9e cb 3a d7 a3 3f 3c b0 d1 57 3c 86 82 c0 bb
       0.001553495 0.011696777 0.013172552 -0.0058749346
000340 4d 68 9c 3b 14 6f a1 3a 2e c2 3e 3e 5a 7e 07 3e
       0.004773176 0.0012316429 0.18628761 0.13231793
000350 3c 70 c3 3d 3b f4 54 3c d7 68 97 bb 48 a5 02 3c
       0.095428914 0.012997682 -0.004620652 0.007973976
000360 48 e0 74 3a 18 ac cc bc 64 25 e9 3c d0 5e b8 3e
       0.0009341282 -0.024984404 0.028460212 0.36009836
000370 ea 3f 8f 3c ce 2c 36 3c f2 1d 83 3e a1 05 b8 3c
       0.017486531 0.011119081 0.25608784 0.022463622
000380 1a b0 25 3d b8 bb 46 3d 48 60 5c 3d ec 06 60 3d
       0.040451147 0.048518866 0.05380276 0.0546941
000390 e0 68 81 3c 03 f7 a3 3d c1 6d 48 3d 3a 36 95 3d
       0.015797079 0.08006098 0.048932794 0.072857335
0003a0 66 c3 75 3c 65 86 49 bc f4 44 4f 39 3b 46 73 bc
       0.0150002 -0.012300109 0.00019766745 -0.014848287
0003b0 d1 06 e4 3c 6c 65 0e 3d 21 12 8a 3b a6 5f cb 3c
       0.027835282 0.034764692 0.004213587 0.024825882
0003c0 03 66 75 3d b5 dd af 3b af 6b 6c 3d dd f3 e4 3c
       0.05991174 0.0053670057 0.057719883 0.027948314
0003d0 b6 c3 41 bb e8 c4 3a 3d a8 92 10 3e 75 73 9f 3c
       -0.0029566116 0.04559794 0.14118445 0.019464234
0003e0 22 59 90 3e d1 42 cd 3c f3 01 34 3c c4 1e 2f 3c
       0.28193003 0.025056275 0.010986793 0.010688487
0003f0 17 99 37 3c 7a b4 86 3c 47 dc fd bb 10 e3 3c bc
       0.011205933 0.01644348 -0.0077472064 -0.011528745

sequential_2_1/gru_1/gru_cell_1/Cast_1/ReadVariableOp/resource:0 f4 [50, 150]
000000 3a 6d 45 be 46 84 99 be df 40 90 be f2 95 81 be
       -0.19279948 -0.2998373 -0.28174493 -0.25309712
000010 7b 53 99 3e e1 28 1a be 78 20 17 be be d7 6a 3e
       0.29946503 -0.15054657 -0.1475848 0.22933862
000020 26 26 ae be 9d c2 e9 bd 48 3a 1d bc a1 90 ba be
       -0.3401348 -0.11414073 -0.009596415 -0.36438468
000030 5f aa 5b bd 41 fb 2f be dd 98 1f bd e3 d5 54 be
       -0.053629275 -0.1718569 -0.03896414 -0.20784716
000040 8a de 7e be 08 91 a0 3e 11 0c 9a 3e ac 3f 85 be
       -0.2488958 0.3136065 0.3008733 -0.2602514
000050 a6 fc 97 be 2b e2 95 bd 96 8f 83 bd c4 68 61 3e
       -0.29684943 -0.07318529 -0.06423871 0.22012621
000060 71 2a cc 3d 84 6b 44 3c 64 34 7a be ba c8 85 be
       0.099690326 0.011988524 -0.24434048 -0.26129705
000070 df 22 c9 bd ff 64 a3 3e c7 15 41 bd 8c ad b8 be
       -0.09821104 0.3191299 -0.04713991 -0.36069906
000080 91 30 70 be c0 7d 0b be 06 0f 3f 3e ad 76 a9 be
       -0.23456027 -0.13622189 0.18658075 -0.33098355
000090 24 0f 0f 3e 5d 2b 66 3e dc 84 51 be 6a 58 c8 be
       0.1397062 0.2247748 -0.20460838 -0.39129955
0000a0 e6 bb 2f be 8d 7a ee bd f9 62 30 be 3b 76 21 be
       -0.17161521 -0.116444685 -0.17225255 -0.15767758
0000b0 3e 52 c9 be f8 83 92 3e ae 67 25 3e e4 f1 e0 bd
       -0.39320558 0.2861631 0.16152832 -0.10983637
0000c0 23 50 ad be 95 06 85 be c7 27 4c bd 99 cb d7 bd
       -0.33850202 -0.25981584 -0.049842622 -0.1053688
0000d0 27 60 23 be 09 1c 6e 3d c0 37 88 3b cc ef 55 3c
       -0.15954648 0.058132205 0.0041570365 0.01305766
0000e0 d0 53 c1 bd 9f b9 69 bd d5 fe a8 3c 5f db 23 bd
       -0.09439814 -0.057061788 0.020629326 -0.04000413
0000f0 fc 19 df 3d 42 fd 10 3d 26 6f 02 be fd 34 94 bd
       0.10893628 0.035397775 -0.12737712 -0.07236669
000100 a5 16 70 3d 24 1f 90 bd a1 0d ff bd 37 63 31 be
       0.058615346 -0.070371896 -0.124537714 -0.17323004
000110 c3 84 2e be 41 e4 36 3e 4c 81 8b bc 16 8e dd 3c
       -0.17042832 0.1786051 -0.017029427 0.02704529
000120 cb c7 c1 3e 05 a1 0c bc ac fe 4f 3d da 5d 91 3d
       0.37847742 -0.008583312 0.050779983 0.07097979
000130 3c 23 3c be 54 fb 59 3c 32 ef 8b 3c 2c 3c 3e 3d
       -0.18372816 0.01330455 0.01708183 0.046444103
000140 bd 16 dc 3c dd 25 bd bd 16 92 bb bd 6f 20 e5 bd
       0.026866311 -0.092357375 -0.09158723 -0.11187827
000150 fd 74 4d bd e9 66 f1 bd ce 45 ea bd 2e d9 5b 3d
       -0.050160397 -0.11787207 -0.114390954 0.053673916
000160 57 57 e2 bd f8 89 ee bd 8f 22 2f bd dc 85 0a be
       -0.11051815 -0.11647409 -0.042757567 -0.13527626
000170 72 d0 d4 bd 46 a4 82 bd 7f 4e 28 be ef d5 74 3d
       -0.1039132 -0.06378989 -0.16436194 0.059774335
000180 23 65 b1 3d 2d 02 0d 3d 91 c1 8e 3e d8 cf ed 3c
       0.086618684 0.034425903 0.27882054 0.029029772
000190 f5 61 de 3d fb cc b1 3d b3 47 45 be 99 6b 3b 3d
       0.108585276 0.08681675 -0.19265632 0.04575691
0001a0 43 75 9a bd f1 dd c9 3d bf 3a 01 bd d4 3b 40 3d
       -0.07541897 0.09856785 -0.031550165 0.046932057
0001b0 18 a2 0a bd ec b3 6e 3e 08 63 40 bc 21 7d 42 3d
       -0.03384599 0.23310822 -0.011742361 0.047482613
0001c0 2b 02 9d 3c a9 c0 9a 3d ad d5 4e 3d 27 22 07 3d
       0.019166073 0.07556278 0.050496746 0.032991555
0001d0 64 7d 76 3d cb b3 c4 bc f1 b9 d5 bd 59 33 4d 3d
       0.060178176 -0.024011513 -0.10435856 0.050097797
0001e0 ac a1 4e bc fe 5d d9 3d 69 50 a5 bd 0d 79 c6 3b
       -0.012611788 0.10613631 -0.08071978 0.006056911
0001f0 3c 7c 04 be f7 87 44 3d 20 14 50 bd 48 6c 17 3e
       -0.12938017 0.04798123 -0.050800443 0.147874
000200 29 74 4b 3d af d0 d5 3c 62 71 8d 3c 07 08 3b 3e
       0.049671326 0.026100485 0.01726598 0.18264781
000210 c0 26 0c 3c 42 dd 81 bd 93 8b fd 3c ec c1 28 3d
       0.008554161 -0.0634103 0.030950343 0.041200563
000220 dc 40 02 be 8e 71 f0 3d d0 8c e1 3c 5d 86 aa bd
       -0.12720054 0.11740409 0.027532965 -0.08326409
000230 3b 70 0d 3e 68 5a 01 3d 7a 19 f4 bc c0 46 9b bd
       0.13812344 0.03158036 -0.029797304 -0.07581854
000240 3e a3 e6 bd 0e e0 9b bd 6a 04 b9 bd 41 8f 36 be
       -0.11261605 -0.076110944 -0.09034045 -0.17828085
000250 28 c6 cf 3d 86 68 b5 3d f1 f1 73 be 4a b5 32 be
       0.10145217 0.08857827 -0.23822762 -0.17451969
000260 78 fd 8c bd ff d5 91 bd c8 4c 54 3d 05 ef 83 be
       -0.06884283 -0.07120895 0.051831037 -0.25768295
000270 05 0a e9 bd ce 5a 4e 3e 6a 72 89 bd b8 76 cf bd
       -0.11378864 0.20151827 -0.06711276 -0.10130066
000280 fa 2b ff 3c 96 d9 84 be 04 e0 ae bd 0f 6d 42 be
       0.0311489 -0.25947255 -0.08538821 -0.18986915
000290 90 d8 ca bd 13 96 bd bd d9 0a 2c be 81 73 e9 3d
       -0.09904587 -0.0925714 -0.16801013 0.11398984
0002a0 aa f2 4e 3e 1b 0b d3 be e0 ef 80 bd a4 47 65 be
       0.20209756 -0.4121941 -0.062957525 -0.2239061
0002b0 ff d8 56 3d 90 b8 82 3e c6 e9 7c 3e ab 4f 5d be
       0.052453037 0.25531435 0.24698552 -0.21612422
0002c0 63 c4 84 be e3 a8 91 be 31 34 e5 bb 52 31 90 3e
       -0.2593108 -0.28449163 -0.006994747 0.28162628
0002d0 3d 6b b2 bd a9 01 55 be 44 b3 02 be 95 b8 7d be
       -0.0871186 -0.20801415 -0.12763697 -0.24777444
0002e0 ae af 4c 3e 56 df b2 bd 23 84 ee 3d a1 36 9d 3e
       0.19988891 -0.08734004 0.11646297 0.3070574
0002f0 4c 63 15 be 7e 65 88 be 8f c4 af 3c 48 5f 06 be
       -0.1458866 -0.26639932 0.021456031 -0.13122284
000300 ec a7 0a be 9f 9e 8b be e9 9b b2 be 57 43 12 3e
       -0.1354062 -0.27269456 -0.34884575 0.142835
000310 a0 84 90 bd 4e c3 5b be 61 d7 b0 be 8f e1 4c be
       -0.07056546 -0.21461222 -0.3453932 -0.20007919
000320 44 e4 a9 3d b2 8e 18 be ff d7 10 be 88 00 c1 3b
       0.08295491 -0.14898184 -0.14144896 0.005889956
000330 b4 51 a6 bd d6 b0 38 3d 2c c2 11 bd 06 cb 21 be
       -0.081210524 0.04509052 -0.035585567 -0.15800104
000340 3e 3c 43 3d 12 1a 2e be 6f 2a 59 3e 4e 46 3b bd
       0.047664873 -0.17002133 0.21207593 -0.045721345
000350 e5 0e 4e bd a9 50 35 3d 45 c8 a3 3d 0e f9 74 bd
       -0.050307173 0.044266377 0.07997183 -0.05980783
000360 6f d3 f4 3c 6f 5a 92 bc 91 c9 94 3d a1 04 76 3e
       0.029885976 -0.017865388 0.07265008 0.24025203
000370 cc ae 23 3c ba fb 7f 3c ea 06 d6 3e c4 f9 40 bd
       0.009990405 0.015623981 0.4180215 -0.047113195
000380 75 02 28 3e 83 f3 33 3e db 9d 49 bd fd c7 9a 3d
       0.16407187 0.17573361 -0.04922281 0.07557676
000390 dd a2 9c bd 2c 88 7a 3d 7d 6b 2e 3d b2 3d 01 be
       -0.07648251 0.06116502 0.042582978 -0.12621191
0003a0 79 a9 85 3e 1e cd 01 be 05 8a 79 3e 2d f2 e7 bd
       0.2610586 -0.12675902 0.24369057 -0.11325488
0003b0 79 b0 bd 3d c0 88 b0 bd 32 ab 81 bd 2b 03 6b bd
       0.09262175 -0.08619833 -0.06331481 -0.057376068
0003c0 7c 58 05 be d1 92 a8 3d 64 1b 60 bc 55 db ee bd
       -0.13022035 0.08231128 -0.013678405 -0.11662928
0003d0 5d bc a5 bd df 26 52 3e 99 9b f0 3d 99 f2 a9 3d
       -0.08092568 0.2052264 0.11748428 0.08298225
0003e0 10 45 db 3d 52 41 86 3d ec 43 b6 3d 91 62 87 bc
       0.10706532 0.065554276 0.08899674 -0.016526492
0003f0 cd 60 33 bd e9 4c e0 3d ce 63 5f bd f5 11 e6 3d
       -0.04379349 0.109521694 -0.05453854 0.11233894

sequential_2_1/gru_1/gru_cell_1/Cast/ReadVariableOp/resource:0 f4 [1, 150]
000000 55 75 4c be 1f f0 7c be e7 55 fa bd 77 78 8a bd
       -0.19966634 -0.24700974 -0.12223416 -0.06761258
000010 00 83 98 3e f3 b7 49 bd 58 4b af bb 79 09 60 3e
       0.29787445 -0.049247693 -0.005349558 0.21878614
000020 75 b2 b4 3d f1 54 4a be 52 6e 18 be 68 72 98 be
       0.088231005 -0.19758965 -0.14885834 -0.29774785
000030 84 bf 17 be 13 e6 af bc 98 1c 80 be e5 6e 4e be
       -0.14819151 -0.021472013 -0.25021815 -0.2015949
000040 5f 6e b6 be 74 8f f6 3d 1f 3a 72 3e c9 4a e7 be
       -0.3563108 0.1203908 0.23654984 -0.45174244
000050 00 ad 82 be 6f 3e d4 bc 80 8f 26 3e 49 6e d4 3e
       -0.25522614 -0.025908677 0.16265678 0.4149039
000060 94 56 ab bd 31 5d 01 3d f4 13 ed bd ba 72 b0 be
       -0.08366123 0.031583015 -0.115760714 -0.3446253
000070 58 cc 75 be 58 32 51 3e f0 f9 b5 be 2f 29 6a be
       -0.24003732 0.20429361 -0.3554225 -0.22867273
000080 06 9e 6a bd 5f 48 e2 be f8 f9 64 3e 53 33 02 be
       -0.05727961 -0.4419584 0.2236098 -0.12714891
000090 42 1b d0 3d 45 6d 6f 3e 75 c0 d4 bb f4 8e 10 be
       0.10161449 0.23381527 -0.006492669 -0.14117032
0000a0 46 33 1a bd 63 01 35 be 7a a3 92 be 3a 02 02 be
       -0.037646554 -0.1767631 -0.28640348 -0.12696162
0000b0 d5 42 14 be 94 32 16 3e 02 8e b4 3d a1 b0 56 be
       -0.1447862 0.14667732 0.08816148 -0.20965816
0000c0 f3 99 c5 be 82 13 4e be db 36 1f bc 26 ca 92 3b
       -0.38594016 -0.20124629 -0.009717668 0.0044796644
0000d0 f9 0d 8f be 2b c4 ce bd c4 b6 3f 3e 72 00 cf 3c
       -0.27940348 -0.1009601 0.18722063 0.025268767
0000e0 c4 e6 3e bd 89 3c 4a be bb 9b 4f bd 39 19 29 be
       -0.046606794 -0.19749655 -0.050685626 -0.16513528
0000f0 e7 ed 76 3e fd 39 c9 be 97 4c 8e be bd c3 9c bd
       0.2411419 -0.39302054 -0.27792808 -0.076545216
000100 49 e9 8a 3d bf c7 1f be 4f c2 0c bd a3 9f bc 3d
       0.06782777 -0.15603541 -0.034364995 0.09210136
000110 11 c6 e3 bb 3b aa 2b 3e bf 3e b7 bd 16 a2 2d 3e
       -0.0069511016 0.16764157 -0.08947515 0.16956362
000120 6c 7c 04 3e 13 4f 2a be 8c 8b c8 bd c9 18 e2 bc
       0.12938088 -0.16631727 -0.097922415 -0.02759971
000130 65 67 bd bc 0d e2 6a 3e f0 62 11 3d f2 ff 32 3d
       -0.023120591 0.22937794 0.035494745 0.04370112
000140 42 e8 8b be ad bb b1 be 9b e9 51 3e 0e df 1c be
       -0.27325636 -0.34713498 0.2049927 -0.15319464
000150 07 c2 71 3c 9d 17 a1 3d 09 81 aa bd 8a 80 85 bd
       0.014755732 0.07865832 -0.08325393 -0.065186575
000160 cf 23 c3 bd c3 78 64 3e 17 92 5f be f2 84 4d bc
       -0.09528314 0.22311692 -0.21833073 -0.012543904
000170 0e 8a fe bc 36 c6 ce bd 27 9e 52 bd 65 bf 5a 3e
       -0.031071689 -0.100963995 -0.051420357 0.21362074
000180 35 b8 69 3e 40 0b 87 3d 00 ef 35 3d 8a 84 3f bd
       0.22824176 0.06593943 0.04441738 -0.04675726
000190 54 b1 a2 3d c1 4c 53 3e d2 ee 52 3d bf 0b 07 3d
       0.07943979 0.20634748 0.051497288 0.032970186
0001a0 f0 4a 02 3d 4e 15 05 be 29 88 ff bd a0 cf 82 3d
       0.031809747 -0.12996408 -0.12477142 0.063872576
0001b0 c1 1a a7 bc 3d da 62 3e e0 0b de 3c c2 79 eb bd
       -0.0203985 0.22153564 0.027105272 -0.11497833
0001c0 1d f9 da 3d af 06 22 3e 5d b7 1c be ef 57 eb bd
       0.10692046 0.15822862 -0.15304323 -0.114913814
0001d0 7e 56 8c be 00 00 98 3d 13 53 02 bc fb ad de bd
       -0.27409738 0.07421875 -0.007954377 -0.10873028
0001e0 68 eb 7a 3e 0e 58 33 3b 2f 34 29 3c db b2 17 be
       0.24503863 0.0027365717 0.010327383 -0.14814322
0001f0 d5 a0 5a 3d 94 9a f4 3d e1 1c 7d be 0a 97 88 3d
       0.053376038 0.11943546 -0.24718048 0.066694334
000200 fb 79 b2 bd 14 56 38 be 6c 57 56 3e a1 82 b5 be
       -0.08714672 -0.18001586 0.20931786 -0.35451224
000210 c2 a0 1d be a3 62 f7 bd 2d 48 f8 3d 57 69 a8 bd
       -0.15393355 -0.1207936 0.121231414 -0.08223217
000220 da 68 df bd d7 5c 72 bc 17 5e 04 be 48 dc 34 3e
       -0.10908671 -0.014792643 -0.12926517 0.17662156
000230 80 1e 70 be eb f7 0e 3e b4 27 d0 3c 88 6b 3a 3e
       -0.23449135 0.1396176 0.025409557 0.18205082
000240 1f 20 b0 bd 94 a9 5f 3d ca 71 32 3d e8 6e f3 3d
       -0.085998766 0.05460508 0.04356555 0.11886388
000250 f7 cb cb 3e 8e 42 a7 3d
       0.3980405 0.08166991

sequential_2_1/dense_2_1/Cast/ReadVariableOp:0 f4 [50, 1]
000000 29 06 8b 3e 35 3c 75 3e 62 e8 80 3e 4c f6 d4 3d
       0.27153137 0.23948748 0.25177294 0.1039854
000010 2b 66 3d be ae 0e b4 be 45 83 6c be e7 d9 15 be
       -0.18496005 -0.3516745 -0.2309695 -0.14633904
000020 d4 f4 9e be 08 96 94 3d 8f d9 23 bd b9 3b ae be
       -0.31046164 0.07255179 -0.040002402 -0.3402994
000030 1e 6c b1 3d af 99 75 3e ed c6 9e be 24 3f 32 be
       0.086632 0.23984407 -0.31011143 -0.17406899
000040 ec 2a 32 be d3 32 7f be 23 71 6a 3e e7 ee 1b be
       -0.17399186 -0.24921732 0.2289472 -0.15227853
000050 e8 fc 22 3e 37 c1 fe bc 24 d6 74 bd 74 ea 1b 3e
       0.15916789 -0.031097991 -0.059774533 0.15226156
000060 9e 6f c7 bd b1 d2 ba 3d d1 b7 ad bd 1c 0e 7a 3e
       -0.09738086 0.091222174 -0.08482326 0.24419445
000070 a8 a1 7f bc 25 86 81 3d 40 fe d0 3e 8e 6d 57 be
       -0.015602507 0.06324414 0.40818977 -0.21037886
000080 e0 e6 b8 be f4 88 62 be de a2 96 be b4 df 04 be
       -0.36113644 -0.22122556 -0.29421133 -0.12975961
000090 60 aa b9 3d 3d b1 29 be b1 bb 13 bd 86 47 52 3e
       0.090656996 -0.16571517 -0.03606767 0.20535097
0000a0 ec c6 90 be 64 04 9a 3e bd 49 60 3e 94 ce 9f 3e
       -0.28276765 0.30081475 0.21903129 0.31212294
0000b0 fc ef a8 be 27 91 3d be 7b 92 cf bd 08 2a 76 3e
       -0.32995594 -0.18512402 -0.10135361 0.24039471
0000c0 c1 8e 66 3e 7f e7 9c 3e
       0.22515394 0.30645368
