models/GRU_model_mae.onnx (onnx, 43709 bytes, 4 tensors)

sequential_5_1/gru_1_1/gru_cell_1/split/ReadVariableOp/resource:0 f4 [2, 150]
0	0x3bba7d7f	0.00569123
1	0xbebb852c	-0.3662504
2	0xbeb87b0a	-0.3603137
3	0xbd8c050f	-0.06836902
4	0xbe9ad4e2	-0.30240542
5	0xbea520fd	-0.3225173
6	0xbe80f11a	-0.25183946
7	0xbe81d17b	-0.25355133
8	0xbdd1570b	-0.1022168
9	0x3d9d526e	0.07681738
10	0xbe5ff2b8	-0.21869934
11	0x3e9996fb	0.29998
12	0xbdf4f65f	-0.11961054
13	0xbe9ba802	-0.30401617
14	0xbe8bce8e	-0.27306026
15	0x3db5f266	0.088841245
16	0x3d6eb595	0.05827864
17	0xbe05fac3	-0.13083939
18	0xbed2f023	-0.41198835
19	0xbebcd866	-0.3688385
20	0xbe19f263	-0.1503387
21	0x3e40d168	0.18829882
22	0x3e096e68	0.13421023
23	0xbe8cec52	-0.27524048
24	0xbebf58e4	-0.37372506
25	0xbea848c3	-0.32868013
26	0x3dff2ecd	0.124600984
27	0xbe13bf2e	-0.14428398
28	0xbe95647a	-0.2917822
29	0xbea238f7	-0.31684086
30	0xbced4ecc	-0.028968237
31	0xbe9ae728	-0.30254483
32	0xbe94dda3	-0.29075345
33	0x3e6a44f6	0.22877869
34	0xbe886b7c	-0.26644504
35	0xbea644cd	-0.32474366
36	0xbe242cce	-0.16032717
37	0xbe8d506a	-0.27600414
38	0xbed3e3c2	-0.41384703
39	0xbe9cc99f	-0.30622575
40	0xbe9537ea	-0.29144222
41	0xbdc53039	-0.09628338
42	0xbdaa4dcc	-0.0831562
43	0xbed70877	-0.41998646
44	0x3e2a21b4	0.16614419
45	0xbe9b8f81	-0.30382922
46	0xbe945c75	-0.2897679
47	0xbe93bb6a	-0.28853923
48	0xbe8678f3	-0.26264152
49	0xbe94b69a	-0.29045564
50	0x3d12927b	0.035784226
51	0x3d83a1c9	0.064273424
52	0x3d8ef18a	0.06979664
53	0x3d9e7061	0.07736278
54	0xbc219798	-0.009862803
55	0x3c1ad099	0.009449148
56	0x3d2f1619	0.042745683
57	0xbb2b8268	-0.0026170257
58	0x3dfb9a1b	0.12285253
59	0x3d7c129a	0.061541177
60	0xbcd04ce7	-0.025427295
61	0x3dc690ec	0.096956104
62	0x3de5c5e9	0.11219389
63	0x3cd785fd	0.026309008
64	0x3ce756f2	0.028239701
65	0x3bb90fea	0.005647649
66	0xbbdd423a	-0.0067522796
67	0x3d1e37f0	0.038627565
68	0x3d63f867	0.055656817
69	0x3eaf6c1d	0.3426217
70	0x3dd7484f	0.10511839
71	0x3d5dad87	0.054120567
72	0x3d22842f	0.03967684
73	0xbb32a8a9	-0.0027261174
74	0x3e09d9d4	0.13462001
75	0x3ba7845f	0.0051122154
76	0xbb64450a	-0.003483119
77	0x3e05ddb2	0.13072851
78	0x3de87606	0.11350636
79	0xbab9c854	-0.0014174082
80	0xbb8f10e7	-0.0043660286
81	0xbd4784d6	-0.048710667
82	0x3e8ad019	0.2711189
83	0xbbae64e3	-0.005322085
84	0x3d4e7929	0.050408516
85	0x3d8df5a5	0.069316186
86	0x3d8a73fa	0.06760402
87	0xbc2e16b9	-0.010625535
88	0x3e0c8675	0.13723166
89	0xbbe5fb9f	-0.007018521
90	0x3d0b7ea0	0.034056306
91	0x3d832f26	0.06405477
92	0x3ca2421d	0.019806916
93	0x3e21f291	0.15815188
94	0x3e24f1ef	0.16107915
95	0xbcbf0491	-0.023317607
96	0x3c9794fd	0.01850366
97	0x3d11508d	0.03547721
98	0xbd069410	-0.032856047
99	0xbb33f009	-0.0027456305
100	0x3ba57a41	0.005049974
101	0x3c56acaf	0.013102694
102	0xbd0c4509	-0.034245525
103	0xbcd78f1d	-0.026313359
104	0xbbfbcef9	-0.007684585
105	0xbc408e84	-0.011752728
106	0xbc8e3846	-0.017360818
107	0x3c48d24a	0.012257168
108	0xbd06b287	-0.0328851
109	0x3a6be97d	0.0008999331
110	0xbc528e61	-0.012851329
111	0xb9ec84a5	-0.00045112256
112	0x3d2e52ca	0.042559423
113	0x3cacd74d	0.021098757
114	0x3c1bc8af	0.009508296
115	0x3b435b62	0.0029809107
116	0x3c5df7ff	0.013547896
117	0xbcb8f413	-0.022577321
118	0x3ca1bbae	0.019742813
119	0x3db4153b	0.08793112
120	0x3d2039a9	0.03911749
121	0xbccb1fb5	-0.024795393
122	0x3c22f0e3	0.009945127
123	0xbc2c0bc1	-0.010500849
124	0xbcc90aad	-0.024541223
125	0xbc4b69e3	-0.012415382
126	0x39621b6e	0.00021563258
127	0xbd1a9948	-0.037743837
128	0x3d319cb4	0.043362334
129	0x3c922c6d	0.01784345
130	0x3d12a374	0.035800412
131	0xbc43475d	-0.01191887
132	0x3d82a98d	0.063799955
133	0xbb748745	-0.0037312072
134	0x3cc3e626	0.023913454
135	0xbca601b4	-0.020264484
136	0xbd54d2de	-0.05195891
137	0x3c05c1c2	0.008163871
138	0xbd57d921	-0.052697305
139	0xbcca51c5	-0.024697194
140	0xbc7fbdb2	-0.015609192
141	0x3d54bf66	0.051940344
142	0xbcd04aed	-0.025426352
143	0xbc026cc3	-0.007960501
144	0xba54f2a2	-0.00081233133
145	0x3c286019	0.010276818
146	0x3c219d01	0.009864093
147	0xbc250693	-0.010072368
148	0xbc0a2d79	-0.008433693
149	0xbc513f73	-0.012771475
150	0x3bba7d7f	0.00569123
151	0xbebb852c	-0.3662504
152	0xbeb87b0a	-0.3603137
153	0xbd8c050f	-0.06836902
154	0xbe9ad4e2	-0.30240542
155	0xbea520fd	-0.3225173
156	0xbe80f11a	-0.25183946
157	0xbe81d17b	-0.25355133
158	0xbdd1570b	-0.1022168
159	0x3d9d526e	0.07681738
160	0xbe5ff2b8	-0.21869934
161	0x3e9996fb	0.29998
162	0xbdf4f65f	-0.11961054
163	0xbe9ba802	-0.30401617
164	0xbe8bce8e	-0.27306026
165	0x3db5f266	0.088841245
166	0x3d6eb595	0.05827864
167	0xbe05fac3	-0.13083939
168	0xbed2f023	-0.41198835
169	0xbebcd866	-0.3688385
170	0xbe19f263	-0.1503387
171	0x3e40d168	0.18829882
172	0x3e096e68	0.13421023
173	0xbe8cec52	-0.27524048
174	0xbebf58e4	-0.37372506
175	0xbea848c3	-0.32868013
176	0x3dff2ecd	0.124600984
177	0xbe13bf2e	-0.14428398
178	0xbe95647a	-0.2917822
179	0xbea238f7	-0.31684086
180	0xbced4ecc	-0.028968237
181	0xbe9ae728	-0.30254483
182	0xbe94dda3	-0.29075345
183	0x3e6a44f6	0.22877869
184	0xbe886b7c	-0.26644504
185	0xbea644cd	-0.32474366
186	0xbe242cce	-0.16032717
187	0xbe8d506a	-0.27600414
188	0xbed3e3c2	-0.41384703
189	0xbe9cc99f	-0.30622575
190	0xbe9537ea	-0.29144222
191	0xbdc53039	-0.09628338
192	0xbdaa4dcc	-0.0831562
193	0xbed70877	-0.41998646
194	0x3e2a21b4	0.16614419
195	0xbe9b8f81	-0.30382922
196	0xbe945c75	-0.2897679
197	0xbe93bb6a	-0.28853923
198	0xbe8678f3	-0.26264152
199	0xbe94b69a	-0.29045564
200	0x3d12927b	0.035784226
201	0x3d83a1c9	0.064273424
202	0x3d8ef18a	0.06979664
203	0x3d9e7061	0.07736278
204	0xbc219798	-0.009862803
205	0x3c1ad099	0.009449148
206	0x3d2f1619	0.042745683
207	0xbb2b8268	-0.0026170257
208	0x3dfb9a1b	0.12285253
209	0x3d7c129a	0.061541177
210	0xbcd04ce7	-0.025427295
211	0x3dc690ec	0.096956104
212	0x3de5c5e9	0.11219389
213	0x3cd785fd	0.026309008
214	0x3ce756f2	0.028239701
215	0x3bb90fea	0.005647649
216	0xbbdd423a	-0.0067522796
217	0x3d1e37f0	0.038627565
218	0x3d63f867	0.055656817
219	0x3eaf6c1d	0.3426217
220	0x3dd7484f	0.10511839
221	0x3d5dad87	0.054120567
222	0x3d22842f	0.03967684
223	0xbb32a8a9	-0.0027261174
224	0x3e09d9d4	0.13462001
225	0x3ba7845f	0.0051122154
226	0xbb64450a	-0.003483119
227	0x3e05ddb2	0.13072851
228	0x3de87606	0.11350636
229	0xbab9c854	-0.0014174082
230	0xbb8f10e7	-0.0043660286
231	0xbd4784d6	-0.048710667
232	0x3e8ad019	0.2711189
233	0xbbae64e3	-0.005322085
234	0x3d4e7929	0.050408516
235	0x3d8df5a5	0.069316186
236	0x3d8a73fa	0.06760402
237	0xbc2e16b9	-0.010625535
238	0x3e0c8675	0.13723166
239	0xbbe5fb9f	-0.007018521
240	0x3d0b7ea0	0.034056306
241	0x3d832f26	0.06405477
242	0x3ca2421d	0.019806916
243	0x3e21f291	0.15815188
244	0x3e24f1ef	0.16107915
245	0xbcbf0491	-0.023317607
246	0x3c9794fd	0.01850366
247	0x3d11508d	0.03547721
248	0xbd069410	-0.032856047
249	0xbb33f009	-0.0027456305
250	0x3bc2e89f	0.0059481408
251	0x3c095280	0.008381486
252	0xbd15ec21	-0.036602143
253	0xbcf4b7e6	-0.029872846
254	0xbc5e3e08	-0.013564594
255	0xbbc15b46	-0.005900773

sequential_5_1/gru_1_1/gru_cell_1/Cast_1/ReadVariableOp/resource:0 f4 [50, 150]
0	0xbe1ee414	-0.15516692
1	0x3ef80e1f	0.48448274
2	0x3e545c0e	0.20738241
3	0xbebc27d0	-0.36749125
4	0x3e801428	0.25015378
5	0x3e39fb18	0.18162191
6	0x3eac28eb	0.33624968
7	0x3e713236	0.2355431
8	0xbea65d42	-0.32493025
9	0xbdb99926	-0.09062414
10	0x3e6769e1	0.22598983
11	0xbb9702d3	-0.004608491
12	0xbe8ab2cb	-0.27089533
13	0x3e8eabb2	0.27865368
14	0x3eb0247c	0.34402835
15	0xbda90d5e	-0.08254503
16	0xbcd1dd6c	-0.025618277
17	0xbec1e9b2	-0.37873608
18	0x3ecb774f	0.39739463
19	0x3d4d04de	0.05005347
20	0xbe629bb0	-0.22129703
21	0xbe1ba689	-0.15200247
22	0xbdef6819	-0.11689777
23	0x3eeb89a7	0.46003458
24	0x3ec67d9f	0.38767716
25	0x3e952680	0.29130936
26	0x3e9f87fe	0.3115844
27	0xbe9f3342	-0.31093794
28	0x3deb47b4	0.11488286
29	0x3e5cbab1	0.21555592
30	0xbe4ad3d8	-0.19807374
31	0x3eec5571	0.46158937
32	0xbcec9baa	-0.02888282
33	0xbe810738	-0.2520082
34	0x3ec2d73f	0.38054845
35	0x3d3ce890	0.046120226
36	0xbe3ede29	-0.18639435
37	0x3e2bf365	0.16792066
38	0x3e33ee58	0.1757139
39	0x3e3017d2	0.17196587
40	0x3ed7edd1	0.42173627
41	0xbe87955e	-0.26481146
42	0xbe98089f	-0.29694077
43	0x3c993915	0.018703977
44	0x3d0611ae	0.032731704
45	0x3eac80da	0.33692056
46	0x3e89e0db	0.26929364
47	0x3ec7ebb9	0.3904703
48	0x3edfe8c5	0.43732277
49	0x3eb40428	0.3515942
50	0xbd1547e0	-0.0364455
51	0xbcf378b4	-0.029720642
52	0xbc2a7ca1	-0.01040569
53	0xbdd293cd	-0.10282097
54	0x3d5a8b97	0.05335578
55	0xbe01a246	-0.12659559
56	0xbd26ad8a	-0.040692843
57	0xbc756280	-0.0149770975
58	0xbdd8a5e1	-0.10578514
59	0xbe4e5401	-0.20149232
60	0x3da8f9a3	0.082507394
61	0xbe3b65bf	-0.18300532
62	0x3d109a7b	0.035303574
63	0x3deedabb	0.11662813
64	0xbcf16b04	-0.029469974
65	0xbdb6a3ef	-0.089179866
66	0x3e268806	0.16262826
67	0xbd64ea86	-0.05588772
68	0x3d2ec25b	0.04266582
69	0xbd6868b6	-0.056740485
70	0xbe36b6eb	-0.17843215
71	0xbd9405f4	-0.07227698
72	0xbe92a7e9	-0.2864373
73	0xbdb16632	-0.0866207
74	0x3cd6850d	0.02618649
75	0x3d10aca2	0.035320885
76	0x3de19908	0.110155165
77	0xbd29a599	-0.04141769
78	0xbccf6456	-0.025316399
79	0x3e3749ce	0.17899248
80	0xbda25107	-0.07925611
81	0x3d39b254	0.045336083
82	0x3cd9de5d	0.026595289
83	0xbd8ab611	-0.06773008
84	0x3e0731a4	0.1320253
85	0x3dcea2c5	0.100896396
86	0xbd8136d5	-0.063092865
87	0x3ddf0dce	0.10891305
88	0xbd12d65e	-0.035848968
89	0x3e0fa25e	0.14026782
90	0x3c9ddb63	0.01926965
91	0xbd3b7ef1	-0.045775358
92	0x3e388ca4	0.180224
93	0x3d485077	0.048904862
94	0xbd8c5a99	-0.06853218
95	0x3e2e9b78	0.17051494
96	0x3d9429ca	0.07234533
97	0x3dca58ef	0.09880244
98	0x3e0e35b6	0.13887677
99	0x3e7c4153	0.24634294
100	0xbe2f9582	-0.17146876
101	0x3b861723	0.0040921136
102	0x3d8f7f00	0.07006645
103	0xbc5c086f	-0.013429745
104	0x3dd74908	0.105119765
105	0xbe2e7ad1	-0.17039038
106	0xbc75b4aa	-0.014996687
107	0x3d5463ef	0.051853117
108	0x3d91e34d	0.07123432
109	0x3dcbc897	0.09950369
110	0xbbb59d9a	-0.005542469
111	0x3d768fa1	0.06019557
112	0xbd6bd402	-0.057575233
113	0xbdfbc163	-0.12292745
114	0x3cc83d1e	0.024443205
115	0x3d32685d	0.04355656
116	0xbc10f9a7	-0.008848584
117	0xbd245d67	-0.040128138
118	0x3d5abf61	0.05340517
119	0x3de97d19	0.114008136
120	0xbe187d1b	-0.14891474
121	0xbceb4c4b	-0.028722903
122	0x3c8e8661	0.017398061
123	0xbb80f300	-0.003935218
124	0x3c04bd04	0.008101705
125	0x3d0e67ad	0.03476684
126	0x3d7ff889	0.06249288
127	0x3cdde12c	0.02708491
128	0x3e1d7004	0.15374762
129	0xbc1e0eab	-0.009647052
130	0xbc1141e7	-0.00886581
131	0xbd00e7c4	-0.03147103
132	0x3e3aeeec	0.18255204
133	0x3d949561	0.07255054
134	0x3d5adea0	0.053434968
135	0xbe72d658	-0.23714578
136	0xbe1ba7cb	-0.15200727
137	0x3d7514d0	0.0598343
138	0xbddba1c7	-0.10724216
139	0x3e0a5ada	0.1351122
140	0x3d726770	0.059180677
141	0xbd09f181	-0.03367758
142	0x3e0bf49d	0.13667531
143	0x3e95640e	0.29177898
144	0xbd08996b	-0.033349436
145	0x3d7784b6	0.060429297
146	0xbd15b14d	-0.03654604
147	0xbc33e05a	-0.010978783
148	0x3d7cf99a	0.061761476
149	0x3ccf64d9	0.025316643
150	0xbdc9eaf3	-0.09859266
151	0xbe0cbef8	-0.13744724
152	0xbe86f438	-0.263582
153	0xbeb80093	-0.35937938
154	0xbc38c193	-0.01127662
155	0xbe053f7c	-0.13012499
156	0xbe0fb509	-0.14033903
157	0xbe4d65a1	-0.200583
158	0xbe9816cc	-0.29704893
159	0xbd5442a1	-0.051821355
160	0xbda3a4a1	-0.07990385
161	0x3ee1076b	0.43950972
162	0xbd23ff89	-0.04003862
163	0xbe112853	-0.14175539
164	0x3d80c45e	0.06287454
165	0x3dd726a9	0.10505421
166	0x3e8896b3	0.26677474
167	0xbf0b273d	-0.5435675
168	0xbe6e60f4	-0.23279172
169	0xbe96a114	-0.29419768
170	0xbe4f80d1	-0.20263983
171	0x3e308e2c	0.17241734
172	0xbdaf7335	-0.08566896
173	0xbdc94caa	-0.09829076
174	0xbe580795	-0.21096642
175	0xbddf63fd	-0.10907743
176	0x3e4a312d	0.19745322
177	0xbee519f7	-0.44746372
178	0xbe439e24	-0.19103295
179	0xbe91e388	-0.28493905
180	0xbdbe45f5	-0.09290687
181	0xbe27b0be	-0.16376016
182	0xbe960931	-0.29303887
183	0xbc353a0f	-0.0110612055
184	0xbe323cda	-0.17406026
185	0xbeae3e63	-0.34031972
186	0xbe38e31c	-0.18055385
187	0xbe1e18cf	-0.15439151
188	0xbeeee98d	-0.4666256
189	0x3c2b6dfd	0.010463235
190	0xbdcbf0d7	-0.09958046
191	0xbeb3d028	-0.35119748
192	0xbeb343ea	-0.35012752
193	0xbf10949a	-0.5647675
194	0x3f1a4f59	0.60277325
195	0xbe544798	-0.20730436
196	0xbe369e8f	-0.17833923
197	0xbe4c53cd	-0.19953842
198	0xbe246207	-0.1605302
199	0xbe9ddcd6	-0.30832547
200	0x3e751cd1	0.23936774
201	0x3ee8c115	0.4545981
202	0x3c84a66f	0.016192643
203	0x3d5ae9d6	0.05344566
204	0xbd7860e6	-0.060639285
205	0x3eb04c3a	0.34433156
206	0x3ebadb06	0.36495227
207	0x3db3e0a3	0.087830804
208	0x3e82dc94	0.25558913
209	0x3dfcb8a2	0.123399034
210	0x3d11631a	0.0354949
211	0x3dc415f3	0.09574499
212	0x3ea1686f	0.3152499
213	0x3e71db36	0.23618779
214	0x3d3d89f6	0.046274148
215	0x3e4f152f	0.20222925
216	0x3d2a5509	0.041585002
217	0xbd6c0cf5	-0.057629544
218	0x3ea47093	0.32117137
219	0x3edabc9e	0.42722028
220	0x3e8c159a	0.2736023
221	0x3d06c3ca	0.032901563
222	0x3c83e7c4	0.016101725
223	0xbe7ec9e8	-0.24881709
224	0x3e7ef385	0.24897583
225	0xbde69653	-0.11259141
226	0x3eec2fe5	0.4613029
227	0x3e2f26b4	0.17104608
228	0xbd8f6b93	-0.0700294
229	0x3df33617	0.11875551
230	0x3afee0a9	0.0019445616
231	0x3d922dd9	0.07137651
232	0x3ea6c286	0.32570285
233	0x3e23eecb	0.16009061
234	0x3e85c4c2	0.26126677
235	0x3e46d07e	0.19415471
236	0x3d521341	0.051287893
237	0x3e5aa318	0.21351278
238	0x3e55f4c8	0.20894158
239	0xbd506927	-0.05088153
240	0x3eae7acc	0.34078062
241	0x3deafcb5	0.11473981
242	0xbcedfc05	-0.029050836
243	0xbe8d544e	-0.27603382
244	0xbe8b662c	-0.27226388
245	0x3e4a3993	0.19748525
246	0x3e468cee	0.19389698
247	0x3eca1704	0.39470685
248	0xbd3dd7bf	-0.04634833
249	0x3e1576e2	0.14596131
250	0xbcd50aae	-0.026006069
251	0xbe3ffddc	-0.18749183
252	0xbd33c233	-0.043886375
253	0xbe0ca9ad	-0.13736601
254	0x3d7c523c	0.061601862
255	0x3da7d191	0.081942685

sequential_5_1/gru_1_1/gru_cell_1/Cast/ReadVariableOp/resource:0 f4 [1, 150]
0	0x3ec20991	0.37897924
1	0xbf03a7d5	-0.51427966
2	0xbe8e71c4	-0.2782117
3	0x3d11d0dc	0.035599574
4	0xbeafe64b	-0.34355387
5	0xbec865d5	-0.39140192
6	0xbe5750ee	-0.21026966
7	0xbe13268c	-0.14370173
8	0x3d467652	0.048452683
9	0x3efb68b2	0.49103314
10	0x38c84934	9.550378e-05
11	0xbd841b7e	-0.06450556
12	0x3e4bf5a1	0.19917919
13	0xbe87e86e	-0.26544517
14	0xbcd41058	-0.0258867
15	0x3ec0d3a4	0.3766147
16	0x3e9d6ec1	0.3074856
17	0x3e855d40	0.26047707
18	0xbefc746b	-0.4930757
19	0xbe0abb51	-0.13548018
20	0x3bcaa2e0	0.006183967
21	0xbdcf696f	-0.10127532
22	0xbc8591b3	-0.016304826
23	0xbe99efcf	-0.30065772
24	0xbea86f25	-0.32897297
25	0xbea90ae2	-0.33016115
26	0x3eabf120	0.335824
27	0x3cf56a26	0.029957842
28	0xbe2f0be6	-0.17094383
29	0xbe758439	-0.2397622
30	0x3dc869fc	0.0978584
31	0xbe2d4dd0	-0.16924214
32	0xbec32af4	-0.38118708
33	0x3e9be2a1	0.30446342
34	0xbd250c04	-0.040294662
35	0xbe692ce1	-0.22771026
36	0x3df657c3	0.12028458
37	0xbe14635e	-0.1449103
38	0xbebbf527	-0.36710474
39	0xbe9a7c3a	-0.30172902
40	0xbd69503b	-0.05696128
41	0x3e4c2fcd	0.1994011
42	0x3dd0697c	0.101763695
43	0xbec01ecd	-0.375235
44	0x3c8ef5b6	0.017451148
45	0xbe219f7e	-0.15783498
46	0xbeca63ec	-0.3952936
47	0xbe1a0269	-0.15039982
48	0xbe6c40a1	-0.23071529
49	0xbece33a8	-0.40273786
50	0xbcf13898	-0.029445931
51	0xbe2060fa	-0.15661994
52	0xbd0e2113	-0.03469951
53	0x3da3a6be	0.07990788
54	0x3e712e71	0.23552872
55	0xbe9d3e4d	-0.30711594
56	0x3d1a9ea6	0.037748955
57	0xbd98265e	-0.07429193
58	0x3d4e0ff7	0.050308194
59	0x3de06054	0.10955873
60	0x3e0111e1	0.12604477
61	0x3e3dbefa	0.18529883
62	0xbd22413b	-0.03961299
63	0x3d4efe8b	0.05053572
64	0x3b19a0f7	0.002344189
65	0x3d01b80d	0.031669665
66	0xbd886867	-0.06660538
67	0x3e0d3827	0.13790952
68	0xbd85e85f	-0.06538462
69	0x3db910d1	0.090364106
70	0x3e3d4715	0.18484147
71	0x3e6dd975	0.23227485
72	0x3e753a4b	0.23948018
73	0xbd387ae9	-0.04503909
74	0xbe3ef746	-0.18649015
75	0x3ebcd7ab	0.36883292
76	0xbe06a98b	-0.13150613
77	0x3e250076	0.16113457
78	0xbd3869bd	-0.045022715
79	0xbd86cc68	-0.06581956
80	0xbc141e28	-0.009040393
81	0x3ad4ceba	0.0016235926
82	0x3d30f19f	0.043199178
83	0x3d88a683	0.066723846
84	0xbe0f7232	-0.14008406
85	0xbe9cf420	-0.30655003
86	0x3dd2f17a	0.10299964
87	0x3d53e4ce	0.051731877
88	0x3d2ae41d	0.041721452
89	0xbd26cfcd	-0.040725518
90	0x3ca1881d	0.019718224
91	0xbd19e3a7	-0.03757062
92	0x3c60ba62	0.013716312
93	0x3f0b928a	0.54520476
94	0xbda545bf	-0.08069944
95	0x3e00974c	0.12557715
96	0xbe0ee0ef	-0.13952993
97	0xbda6525e	-0.08121179
98	0x3d8764a6	0.06610994
99	0xbc26facf	-0.010191633
100	0xbd12121f	-0.035661813
101	0x3dbdcaf3	0.09267225
102	0x3dfc439d	0.12317584
103	0x3c803e0c	0.015654586
104	0xbe9cc8fb	-0.30622086
105	0xbe68515c	-0.22687286
106	0xbe53e158	-0.2069143
107	0x3e8be89d	0.27325907
108	0xbcd6000b	-0.026123067
109	0xbe2a963a	-0.1665887
110	0xbe1b85ee	-0.15187809
111	0xbdf0b3c9	-0.11753041
112	0x3c091be8	0.00836847
113	0x3e30f0a1	0.17279293
114	0x3e056a6d	0.1302888
115	0xbd06475d	-0.0327829
116	0xbc42e5ee	-0.01189564
117	0xbd8c659e	-0.068553194
118	0x3dfda1b1	0.12384356
119	0x3ebe3957	0.37153122
120	0xbcb03b0f	-0.021512536
121	0x3d1a3716	0.03765019
122	0xbdaef8ad	-0.08543525
123	0xbe0a7e63	-0.13524775
124	0xbe1e644d	-0.15467949
125	0xbe969fe1	-0.29418853
126	0xbcf192a7	-0.029488875
127	0x3d98a183	0.07452681
128	0x3e3b9936	0.18320164
129	0x3dc54d99	0.09633941
130	0x3db77ba6	0.08959131
131	0xbe4d8df0	-0.20073676
132	0x3dcf56d9	0.10123987
133	0x3db11713	0.08646979
134	0x3e5486bd	0.20754524
135	0xbe18c37d	-0.14918323
136	0xbe2beb48	-0.16788971
137	0x3e6b0d9a	0.22954407
138	0xbe65f8e7	-0.2245823
139	0xbe2d45f1	-0.16921212
140	0xbe813c10	-0.25241137
141	0xbcdf9653	-0.02729336
142	0xbbd4156e	-0.006472281
143	0xbe654c85	-0.22392471
144	0x3dd76c4e	0.10518704
145	0x3e4f6f0e	0.20257208
146	0x3e8d651b	0.276162
147	0xbe9d20dc	-0.30689132
148	0xbe834060	-0.25635052
149	0xbdaf1f9b	-0.0855095

sequential_5_1/dense_5_1/Cast/ReadVariableOp:0 f4 [50, 1]
0	0x3cfff1eb	0.031243285
1	0x3ed41c57	0.41427872
2	0x3dbe285b	0.09285041
3	0xbd5e07aa	-0.054206528
4	0xbecc4394	-0.39895308
5	0xbf0266b0	-0.5093794
6	0xbe70b108	-0.23505032
7	0x3e5954e9	0.21223797
8	0xbd874fc5	-0.06607012
9	0x3e01f731	0.12691952
10	0xbe7ec237	-0.24878775
11	0x3d8c4c11	0.06850446
12	0x3d794f1f	0.06086647
13	0x3e33e947	0.17569457
14	0x3e94f985	0.29096618
15	0x3e8302ad	0.2558798
16	0x3e791bb9	0.24326982
17	0xbe740a56	-0.23832068
18	0x3e88c001	0.26708987
19	0x3d9658e9	0.07341177
20	0xba1ad17e	-0.00059058506
21	0xbe7612ed	-0.24030657
22	0x3e1470be	0.14496133
23	0xbec64fe2	-0.3873282
24	0xbeab28ee	-0.33429664
25	0xbe4a4282	-0.19751933
26	0x3d5a3387	0.053271797
27	0x3c09b1a9	0.008404174
28	0x3deaede6	0.11471157
29	0x3e915cb1	0.2839103
30	0xbcaa2473	-0.020769333
31	0xbe8b1802	-0.27166754
32	0x3d60d9e6	0.054895304
33	0xbce99e84	-0.028517969
34	0x3e06910d	0.1314127
35	0xbe5c00d0	-0.21484685
36	0xbc09d563	-0.008412692
37	0x3ed71ca7	0.42014048
38	0xbdde229b	-0.10846444
39	0xbe331a71	-0.17490555
40	0xbe91136c	-0.2833513
41	0xbd5ab1d4	-0.053392246
42	0xbd817f57	-0.06323116
43	0xbe67f012	-0.22650173
44	0x3c1d77fb	0.009611125
45	0x3e8ffb42	0.28121382
46	0x3ea28ccf	0.31748053
47	0xbeb68cbb	-0.35654244
48	0xbe9c5b35	-0.30538335
49	0xbe85acbf	-0.26108357
