models/LSTM_model_mse.onnx (onnx, 51239 bytes, 4 tensors)

sequential_1_1/lstm_1/lstm_cell_1/add_1/ReadVariableOp/resource:0 f4 [200]
00000000: f2f9 c93d c280 3f3d aa3a b23d 403d 053d
00000010: 6129 153d 69ee 8d3e f667 17bd 41de 6b3d
00000020: 37c1 5c3d c18c ac3c afb3 f63c 0c17 bb3d
00000030: 2678 183d 28a3 e4bc ff67 c33d e27b 5e3c
00000040: 72de 42bc 3df3 d23d 486b 553d a09f 133d
00000050: 1557 223d 46e9 b3bc 40bc ef3c a9f3 38bc
00000060: ee5e bbba dd51 e2bc 7fe4 d03c 8860 a73b
00000070: 4bd5 1b3d b61f 5a3c 834b ac3c 9cb8 ec3c
00000080: 79f0 af3c b073 f23b 223f 733c 20d7 343c
00000090: 0a7a a3bb 1aaa a5bc c1cd aebc f317 173e
000000a0: 3e1f 253e c80b 4c3d 4d72 083e 2ed8 403d
000000b0: 6e9a f93c a328 adbc 163e dfbc 9009 b33c
000000c0: 0421 0b3d 2f6b 3a3e 76d5 7f3f 1234 823f
000000d0: 2c0f 833f 27f6 823f c9f8 803f ce78 833f
000000e0: 20c6 783f ab1f 813f 942f 853f c1a1 803f
000000f0: 6e80 803f eb00 7d3f a38c 7d3f d552 7c3f
00000100: c4e7 803f dc87 7c3f 0877 7b3f 4610 813f
00000110: cc48 803f 1dd1 813f 60f0 7f3f c7a7 7b3f
00000120: 1e6e 803f cf52 783f 153f 753f cca9 793f
00000130: 0783 773f 5eaa 7e3f 9bf4 7f3f cd10 823f
00000140: de6b 7d3f d8f4 813f bcb1 823f 5fbb 793f
00000150: ff5c 813f b381 813f 1471 7f3f a645 7b3f
00000160: d763 7c3f 8705 833f 9d0b 7c3f 2f38 813f
00000170: d925 803f d7b9 813f b739 7f3f 4355 7c3f
00000180: 77ec 793f dafd 803f 51ab 813f ac68 853f
00000190: 5a36 a23c 3162 bc3c 7935 093d d079 e1bc
000001a0: 71a7 973c 01f6 d53c bc1c 123c bebe bfbc
000001b0: df2d 2f3c 55af 913c 3c59 87bc 1632 f3ba
000001c0: 394b b43b b443 b4bc 71ce 9e3c 12ef e83b
000001d0: 0906 6e3c 6082 95bc 3c21 07bd 03c4 df3c
000001e0: c417 b1bc 41b1 733c ccf9 783c 2ae9 513c
000001f0: 2db5 49bc de43 8dbc aaed d5bc 6061 503c
00000200: a56e ad3c 8c2d 9abc 16c4 87bb bd08 0abd
00000210: 63d8 fc3c 0fdb 5f3c e1ca a03c 78e9 a03c
00000220: 1cfd c63b a44d 8fbc 6724 7fbc 2812 1b3d
00000230: d630 ad3c 1420 9f3c 5d35 32bc 99d1 babc
00000240: 8c9a 933c b9a8 42bc b9b7 8d3c edde ccbc
00000250: 97b0 aabc 861c 603d cd9f cc3d bcd4 383d
00000260: f71c 4e3d e114 fd3c 6848 063d 6bbd 7c3e
00000270: 9d4c 16bd 635f 5f3d 077d 6a3d 19f6 da3c
00000280: cc96 113d 37eb ad3d 3fef 123d 8e5b 09bd
00000290: 5d53 bc3d 4fb9 523c 103b adbc 1963 e23d
000002a0: b342 2c3d cfe6 d93c 317c 0e3d a32a b8bc
000002b0: 6a1e f13c aab0 36bc 40ec 08b6 5d7d debc
000002c0: f883 a43d adc7 0fbc e2a0 0f3d c41c 223c
000002d0: 93ba b23c ac95 d83c 8f00 5e3c e345 ee39
000002e0: 5eae 183c 87b0 023c b363 11bb 0200 a4bc
000002f0: a53e a8bc d5dc 093e f3af 273e f595 453d
00000300: aa19 083e 3b34 393d 3faf e43c 4af9 c2bc
00000310: 8389 e4bc 6999 bc3c 5414 f73c 6064 393e
0.098621264 0.046753652 0.087025955 0.032529116 0.036416415 0.27720955 -0.03696438 0.057585005
0.0538952 0.02106321 0.030114977 0.09135255 0.037223957 -0.02790983 0.0954132 0.013579341
-0.011893855 0.103003 0.052104264 0.036040902 0.03963383 -0.02196182 0.02926457 -0.011288562
-0.0014295259 -0.027626926 0.02549958 0.005107943 0.03804521 0.013313225 0.0210321 0.028896622
0.021476971 0.007399045 0.014846595 0.011037618 -0.0049889134 -0.020222712 -0.021338345 0.1475523
0.16125199 0.049815923 0.13324852 0.047081165 0.030469146 -0.021137541 -0.027251285 0.021855146
0.033967033 0.1820495 0.9993509 1.0172141 1.0239005 1.023137 1.0075923 1.0271242
0.97177315 1.0087789 1.0405145 1.0049363 1.0039194 0.98829526 0.9904272 0.9856389
1.0070729 0.98644805 0.982285 1.0083091 1.0022216 1.0141941 0.9997616 0.9830288
1.0033605 0.97001356 0.9579938 0.97524714 0.96684307 0.9947871 0.99982613 1.0161377
0.9899272 1.0152845 1.021049 0.9755153 1.0106505 1.0117706 0.9978192 0.9815315
0.98589844 1.0236062 0.9845522 1.0095271 1.001155 1.0134839 0.9969744 0.985676
0.9762644 1.0077469 1.0130407 1.0422568 0.019801307 0.02299604 0.03349826 -0.027523905
0.01851246 0.02611828 0.008917984 -0.023406383 0.010692089 0.0177838 -0.016522042 -0.0018554355
0.0055021313 -0.02200494 0.019385548 0.0071085775 0.014527806 -0.018250644 -0.03299068 0.027315145
-0.021617778 0.014873804 0.015196275 0.012811938 -0.012311262 -0.017244276 -0.026114304 0.0127185285
0.021170923 -0.018820547 -0.0041432483 -0.03369974 0.0308649 0.0136630675 0.01962799 0.019642577
0.0060726535 -0.017493077 -0.015572644 0.037859112 0.02114145 0.019424476 -0.010876981 -0.022805022
0.01801803 -0.011881047 0.01729952 -0.025008643 -0.020836158 0.054714702 0.09991417 0.045124754
0.05032059 0.030893745 0.032783896 0.24681632 -0.036694158 0.054534327 0.05724814 0.026728677
0.0355442 0.08492129 0.035872694 -0.03353458 0.09195588 0.012861564 -0.021146327 0.11054058
0.042055797 0.026599316 0.034786407 -0.022481268 0.029433448 -0.011150518 -2.0403095e-06 -0.027159387
0.080329835 -0.008775634 0.03506554 0.009894554 0.021817481 0.026438557 0.013549938 0.00045446967
0.009318916 0.007976658 -0.002218467 -0.020019535 -0.020537684 0.13463147 0.16375713 0.048238713
0.1329104 0.045215826 0.027915595 -0.02380051 -0.027897602 0.02302237 0.03016106 0.18104696

sequential_1_1/lstm_1/lstm_cell_1/Cast_1/ReadVariableOp/resource:0 f4 [50, 200]
00000000: 178a 3a3e 753b a1bc 4709 193e 9c34 e3bc
00000010: b63b e4b8 ad0b 973e 701e 213c 39f6 d6bd
00000020: 5ce8 3dbe 25d2 9c3c 9aa9 be3c 43a0 aebc
00000030: 5335 12be 8e3e bbbc 0028 de3d 5bed ac3c
00000040: 6fbc 7b3d ce59 e23d 58ce 783d 823d ffbc
00000050: fc6b 663b 6099 1d3c 2077 18bd 76a7 aabd
00000060: 52e1 6abe a723 10bc cf93 89be f9ae b1bc
00000070: c26a f53d c278 5cbd 5cbf 8abd bc70 cdbd
00000080: 1aa6 813d 0a8e dcbd 349f 78bd a9fb 36bd
00000090: de37 4dbe d8e1 5fbd 6046 92bd 8604 0b3e
000000a0: d0af 633d db5b 983d 98f6 833e bbc9 983c
000000b0: a8d8 703d aa3e 2ebd 9ae4 1cbe ff3e 91bd
000000c0: 4a1e 4a3b 479e 193e 4fe3 8c3d 67dc eebd
000000d0: f4f7 673e be67 0fbd c736 fa3d f5f5 523e
000000e0: cf41 7ebd d3ee 19bd fa6c 3dbd 1214 f03c
000000f0: 60b1 b33d 8bb3 a0bc 7449 8b3d 5e93 d53c
00000100: 42aa 81bd bdde cf3d 0bb1 103d a3d4 663d
00000110: 296f 6b3e 3e66 413e d9fb 13bd bd11 48bb
00000120: bc80 2c3d 6742 883d d9ae 57be 5ca2 d0b9
00000130: 7596 84be e6d3 c03b 856d 76bd f99b 08be
00000140: bdd2 8bbd 03f7 f9bc 8e30 9cbd 0415 e4bd
00000150: 1a5a f6bd d185 0a3e 6aa9 56bd 081e 11bd
00000160: 4049 68bd 8d8b 85bd 561d 9dbd 19c5 d13b
00000170: 6ff7 963d b48e 38bd ad08 04bd a9e3 86bd
00000180: 9c7b 073c c18f cb3d be05 473d c0c6 ba3d
00000190: 340d 59bd e846 de3d c190 0e3d b102 a03d
000001a0: 2dbe 853d b75c 003e 9c95 5cbc f111 b1bc
000001b0: 39ee 90bd 8044 e0bc 1c3b 5b3d ff00 2abe
000001c0: ce47 52bd ecb7 293d 267e d1bd 1bc8 5d3d
000001d0: a6f9 823d c708 783d 0b54 6bbd 75eb 853d
000001e0: d33b 1a3d 2718 57bd 4f4b 8ebb 1e63 d53d
000001f0: d569 e6bd 0934 f3bd fc15 bc3d e319 9e3d
00000200: 5ad9 7f3c 1d08 df3d e62e 283c c8bf 9fbc
00000210: d53d 653e 9d90 a43d 5e2a 1bbd b6f2 bebb
00000220: b366 ed3c 4e0b 87bd 6f33 26be fba2 10bd
00000230: 5bb2 21bd ab80 203d bf38 813d 27b7 893c
00000240: 9c3c 083d 4e2e babd f5f1 d7bc aa80 f7bb
00000250: 3dbe 503c c1f5 243d a4e2 bf3d 7ec9 2f3d
00000260: 393b 193e 4e37 54bd d865 323d fe76 ef3d
00000270: 0997 88bd f0c7 b33d e7a1 30be d71b ecbc
00000280: e2fc 1b3e bfea ef3a 6352 17bd 48a5 d7bc
00000290: f5ca bc3b 8759 1b3e 0b15 a13e e2a8 8e3d
000002a0: 25df 263e 7ed8 e33d ac6a 903d 5dc8 f13d
000002b0: 67f1 34bd 46a9 c93c bb21 17be 2e19 81bd
000002c0: d26c 3fbe 8f50 033d eafa 653e c129 82bd
000002d0: 08ec 3bbe 1d4d c83d f320 5bbd b3ef 93bd
000002e0: b202 43bd b9cf 9bbb 9f80 a1bd c453 ec3d
000002f0: f7e2 223d 6d41 563c 8934 ab3d c83b 693c
00000300: 00a4 4d3e f956 023d d74a 103e a71c dabd
00000310: 08c9 58bd cc93 053d 9784 aa3c 98cf 3b3e
00000320: 2cb7 0e3e fe82 2bbd 6727 133e e5be f63c
00000330: 4733 953c 9a79 203e 368e 6fbc 222a 423e
00000340: f44c 743d 1daf 763d 4c73 5abb bc8b f43d
00000350: 79d6 9f3d 0bf4 90bd d4d9 3d3e 4feb 4f3d
00000360: 0f03 ad3d 7893 3c3e 74d1 453e b552 af3d
00000370: 8c09 b3bd d044 41bc 9515 0cbd d680 42bd
00000380: 3961 dc3c aa6d c1bc 09f9 7f3c acb2 083e
00000390: 480f f53d c9c3 9cbd 6a8c aabd a10c db3b
000003a0: 038a 87bd 9834 653d dcfb 583d 575e f53d
000003b0: 2e55 8fbd 3b43 d63c 7c03 963d 5f1d df3d
000003c0: fe08 873e 421d 463d 0eb0 103e 9210 4f3d
000003d0: ebe3 e4bc 0e85 25bd f840 8fbc b3b3 f9bc
000003e0: 577e 2b3d a703 533e f01f dd3c 23eb 1ebe
000003f0: bbc7 f63d 221c ce3c 4d8e 16bd a561 c2bc
0.1821674 -0.019681672 0.14944945 -0.027735047 -0.00010883009 0.29501095 0.009833917 -0.10496182
-0.1854567 0.019143173 0.023274232 -0.021316653 -0.14278154 -0.022856977 0.10847473 0.021109274
0.061459 0.11052285 0.06074366 -0.031157259 0.0035159579 0.009619087 -0.03722298 -0.08332722
-0.22937515 -0.008797563 -0.26870582 -0.021689879 0.11983253 -0.0538261 -0.0677478 -0.10031268
0.063305095 -0.10769279 -0.060698703 -0.044673596 -0.20040843 -0.05465874 -0.07142329 0.13575944
0.05558759 0.07439395 0.25774074 0.01865088 0.05880037 -0.04254023 -0.1532158 -0.07092094
0.0030840808 0.15001784 0.06879293 -0.11663132 0.2265318 -0.035011046 0.12217479 0.20601638
-0.06207448 -0.037581276 -0.046246506 0.029306445 0.08774066 -0.019616863 0.068011194 0.026071247
-0.06331302 0.10149906 0.03532509 0.05635513 0.22991623 0.18886659 -0.036128853 -0.003052815
0.04211496 0.0665329 -0.21062793 -0.0003979382 -0.2589604 0.0058846353 -0.06016304 -0.13340749
-0.068273045 -0.030513292 -0.076264486 -0.11136821 -0.12028904 0.1352761 -0.05240766 -0.03542903
-0.05671048 -0.06520758 -0.07671611 0.0064016697 0.07371413 -0.045057967 -0.032234836 -0.065863915
0.008269217 0.09939528 0.04858946 0.0911994 -0.052991107 0.10853368 0.034806017 0.07813013
0.06530414 0.12535368 -0.013463404 -0.021615 -0.07076687 -0.027376413 0.053523168 -0.16601942
-0.05133801 0.041435167 -0.10229139 0.054145914 0.06395273 0.060555246 -0.057453196 0.065390505
0.03765471 -0.052513268 -0.0043424736 0.10419296 -0.112506546 -0.11875159 0.09183881 0.07719781
0.0156157855 0.10890219 0.010265088 -0.019500628 0.22386868 0.08035395 -0.0378822 -0.0058272732
0.028979635 -0.06593953 -0.16230558 -0.03531168 -0.039476734 0.039185207 0.063096516 0.016810967
0.033260927 -0.09090863 -0.026360491 -0.0075531797 0.012740669 0.04027343 0.093694 0.042916767
0.14963998 -0.051810555 0.043554157 0.11692618 -0.06669433 0.087783694 -0.17249261 -0.028821869
0.15233186 0.0018304213 -0.036943804 -0.02632393 0.005761499 0.1517087 0.31461367 0.069658056
0.1629606 0.11125277 0.07051596 0.118057944 -0.04417553 0.024616849 -0.14758961 -0.06303631
-0.18693855 0.03205925 0.22458997 -0.0635562 -0.18351758 0.09780333 -0.05349822 -0.072234534
-0.047609992 -0.004754987 -0.07885861 0.115394145 0.03976723 0.013077122 0.0835963 0.014235444
0.20082092 0.031821225 0.14091049 -0.10649996 -0.052926093 0.032611653 0.020815177 0.1834091
0.13937062 -0.04187297 0.143705 0.030120322 0.018212928 0.15671387 -0.014621308 0.18961385
0.0596437 0.060225595 -0.0033332882 0.11940715 0.07804579 -0.070777975 0.18540126 0.050761517
0.08447849 0.1841563 0.19318181 0.08560697 -0.08742055 -0.011796191 -0.03420027 -0.04748615
0.026901828 -0.023611862 0.015623339 0.13349408 0.11965805 -0.076545306 -0.08327563 0.006684855
-0.066181205 0.05595836 0.052974567 0.119808845 -0.069986686 0.026155105 0.07324883 0.10894274
0.26374048 0.048367746 0.1412966 0.050552912 -0.027940711 -0.040410094 -0.017487034 -0.030481195
0.041868534 0.20606862 0.026992768 -0.15519385 0.12049814 0.0251599 -0.036756802 -0.023728201

sequential_1_1/lstm_1/lstm_cell_1/Cast/ReadVariableOp/resource:0 f4 [1, 200]
00000000: 62a3 b73d b978 5fbd 5df3 103e b6dc 0fbe
00000010: 7551 c8bd 86cb 93bb d970 fabc 6aca c33b
00000020: 1f69 ca3d f8ae 643d 3856 813d 60cf 193d
00000030: 0ae8 e83d 77a4 26be dfa3 5b3e 1acb edbc
00000040: db59 f5bc 32f0 9ebd 631d beba 9d33 58bc
00000050: f2e4 1cb9 7251 e03d 42f0 4fbd 1629 67bd
00000060: 1d51 2c3d 7d67 1e3e d3d9 aabd b947 e13d
00000070: 0dc1 c63d e4ba 693d d285 1dbe 591f b83d
00000080: 3030 153e 3ce5 29be a266 50bd 5372 cbbd
00000090: c59a 21be 260c d3bd 21e2 833d 8692 9c3a
000000a0: 7f28 6c3c 4f47 513e ff39 373e 00a4 91bd
000000b0: bb3c 82bd c92a 9d3d 13ad 29be a7ef 0b3e
000000c0: 6390 cebd c609 243c 6684 09be 63c5 b8bb
000000d0: 125e 993e 2cee 2dbe 79ea 0a3e 4fe4 47be
000000e0: 30b7 0dbe 8dcf 333d 36d7 f53c b5e2 4fbe
000000f0: 34ff 263e 3ad5 04be 062a 833d 8cb2 003d
00000100: f64c 423c ce3e 1cbe 097d f3bd bd9c bebd
00000110: 465c 173e 02f7 8f3d 4dc0 4b3d 52ef babd
00000120: bd67 00be 0a9c 26be 9f7f 31be 6c8f 753d
00000130: f5c3 bcbd 9c19 7dbb 2670 393e 2337 5e3e
00000140: 7d24 23be 67e1 18be a632 4d3e da30 78be
00000150: fc78 af3d 1597 513e ace5 2ebe cb91 2fbd
00000160: 578c 733d 237c 023e 0a8b eabd 7343 0e3d
00000170: e748 07bd 8239 a43c dd01 c6bc e41b 693d
00000180: 06d3 b2bd 34c9 05bc 308e 0c3e 5ed5 da3d
00000190: fe43 523e c2a8 6d3e ee53 3b3d bdbe a13b
000001a0: c4e9 313e 497b 68be 25c5 9cbd b4e2 51be
000001b0: 47ee 83bd 2f5f bdbd f2c3 00be 02ed 6fbe
000001c0: 3f39 1ebe 9852 b13d e3d8 6f3e 3e44 9b3d
000001d0: 95b3 6abd 7412 e5bd b971 8dbd f360 27ba
000001e0: 4ab2 f6bd 44c9 e8bd 83ad 153e 7c67 cebd
000001f0: 8de6 723d 521f c43d 0bff a8bd 4cf5 94bc
00000200: a320 c13d fdc7 acba 0151 18be 86a8 1ebe
00000210: cbd5 5b3c 9f95 60ba bcf7 893d 82b3 50bc
00000220: 34b8 51bd 50e7 3a3c 8bf2 de3d 7af6 033e
00000230: 98d9 2d3e c85e 563e 2ab3 57be 419a 61be
00000240: 57bb ec3d a77b d83d a1f9 84bd 7ae1 91bd
00000250: 3042 2abe fd54 4b3e 8400 b63d 4172 0a3e
00000260: 95fd d93e 12a9 473d 6f7b 643e 67d7 b4be
00000270: dfb8 e0bd 2a55 4f3e 72de 52be 2867 ffbd
00000280: 36e4 263d 692e 14be 2354 9e3d 1973 0f3e
00000290: e020 8a3e 73f1 a0bd 40fe 173e 0b9f 6dbd
000002a0: 323d 1b3e 97d6 d4bd 687c 563e ccad 1b3d
000002b0: 3c1c 743d e70a 23be ffb2 143d 7dcf 123d
000002c0: f0ad f2bd 4df8 4abe 0a46 2f3e 8897 203e
000002d0: b3ab a8bd f401 bcbd 9499 723e 735d b8be
000002e0: 8432 4e3e fd3e 443d 909e d9bd 664f 79bd
000002f0: d669 ce3d 829b a23e 9e62 463d 48a4 4f3e
00000300: 4193 b5bc eec6 a33d e6e4 0fbc 7327 b6bc
00000310: 7069 ac3d 9819 9abc 6606 763e 4e8b 68bd
0.0896671 -0.05455849 0.14155336 -0.14049038 -0.09781162 -0.004510346 -0.030571388 0.0059750574
0.098833315 0.055830926 0.06315273 0.037551284 0.11372383 -0.16273676 0.2144923 -0.02902751
-0.029950073 -0.07760657 -0.0014504608 -0.013195899 -0.00014962608 0.109530345 -0.050766237 -0.056435667
0.042069543 0.15469165 -0.08342328 0.11000008 0.0970479 0.057063 -0.1538308 0.08990354
0.14569163 -0.16591352 -0.05087913 -0.09933915 -0.15781696 -0.103050515 0.06439615 0.0011945523
0.014413952 0.20437358 0.17893218 -0.07111359 -0.0635924 0.07674176 -0.16569929 0.13665639
-0.10086133 0.010012096 -0.13429412 -0.0056387647 0.29954582 -0.16985387 0.13566007 -0.19520687
-0.13839412 0.043899108 0.030009847 -0.20301326 0.1630829 -0.12971964 0.064045 0.031420276
0.011859169 -0.15258333 -0.11889083 -0.09307239 0.14781293 0.07029535 0.04974394 -0.09127678
-0.12539573 -0.16270462 -0.1733384 0.05995123 -0.09217063 -0.003862 0.18109187 0.2170072
-0.15931888 -0.14929734 0.20038852 -0.24237385 0.08567998 0.2046779 -0.170798 -0.04286365
0.05946001 0.12742667 -0.11452301 0.034732293 -0.03302851 0.020046953 -0.02417081 0.056911364
-0.08731656 -0.008165646 0.13726115 0.10685228 0.2053375 0.23208907 0.04573434 0.004936068
0.17374331 -0.2270328 -0.0765479 -0.20496637 -0.06441932 -0.092466705 -0.12574747 -0.23430255
-0.15451525 0.08658332 0.2342258 0.075813755 -0.05730017 -0.1118516 -0.069064565 -0.0006384991
-0.12045725 -0.11366513 0.1461697 -0.10078332 0.0593019 0.095762864 -0.082517706 -0.018183373
0.09430053 -0.001318216 -0.1487465 -0.15493974 0.013417671 -0.0008567217 0.06736705 -0.0127381105
-0.05120106 0.011407688 0.10886105 0.12886992 0.16977537 0.20934594 -0.2106444 -0.220315
0.1155917 0.1057046 -0.064929254 -0.07123084 -0.16626811 0.19856639 0.08886817 0.13520147
0.4257628 0.048745222 0.22312711 -0.3532059 -0.10972761 0.20247331 -0.20592669 -0.12470847
0.040744983 -0.14470829 0.077308916 0.1400875 0.26978207 -0.07858553 0.14843082 -0.058013003
0.15160063 -0.10392492 0.20945895 0.038007542 0.05959724 -0.15922128 0.036303516 0.035842407
-0.11849582 -0.19821282 0.17116562 0.15682805 -0.08235874 -0.0918006 0.23691398 -0.36008796
0.20136458 0.047911633 -0.106259465 -0.060866736 0.1007878 0.31759268 0.048433892 0.20277512
-0.022164943 0.07996927 -0.008782601 -0.022235608 0.08418548 -0.018811032 0.24025878 -0.056773476

sequential_1_1/dense_1_1/Cast/ReadVariableOp:0 f4 [50, 1]
00000000: 8785 de3e ef73 193e 4225 a33e 26a6 8d3d
00000010: b91d 373e 6d3f 63be 942a c03d 5ee3 5cbe
00000020: dca6 7abd 5fec d8bd 357d a3be e99f 41be
00000030: 95fd 15be f57d 3cbe 0536 b53e 930a 883d
00000040: 13a1 a63d eae1 96be a297 eabd fbfa 083d
00000050: d42c b4be 68e6 663d 047b 913e 9025 153d
00000060: 1106 1bbe 7be6 52be 0b7c 973c fbdc 993e
00000070: 47ed 893e 225f 8ebe 7588 2abd 375d 62bc
00000080: de7e 443e 9416 843e 56eb 533d edde 643e
00000090: dae4 813e 9354 2fbe e131 9ebd 08d2 833e
000000a0: 8636 bf3e 7d45 c33e 3936 a9be f5cf 5cbe
000000b0: 0640 943e ece9 05be b0ab 2e3e 6254 bebd
000000c0: 6667 96be 9955 4d3e
0.43461248 0.14985631 0.31864363 0.06916456 0.17882432 -0.22192164 0.09383121 -0.21571109
-0.061194286 -0.10591959 -0.31931463 -0.18908657 -0.14647515 -0.18407424 0.35392776 0.06642642
0.08136191 -0.29469234 -0.11454703 0.03344248 -0.3519045 0.056372076 0.28414166 0.036412776
-0.15139033 -0.20595734 0.018491765 0.30051407 0.2693884 -0.27806956 -0.04163404 -0.013816169
0.19189021 0.25798476 0.051738106 0.22350664 0.25369912 -0.17122106 -0.077243574 0.2574618
0.37346286 0.38138953 -0.3304918 -0.21563704 0.28955096 -0.13077515 0.17057681 -0.092934385
-0.29375762 0.20052184
