models/LSTM_model_mae.onnx (onnx, 51586 bytes, 4 tensors)

sequential_4_1/lstm_1_1/lstm_cell_1/add_1/ReadVariableOp/resource:0 f4 [200]
000000 8c 2a 90 3e e8 5a a0 3d 0f 6c ee 3c 44 49 c5 3c
       0.2815746 0.07829839 0.02910426 0.024082787
000010 68 36 ff 3d 69 29 aa 3c 77 7d c2 3d ef 77 84 bb
       0.12461549 0.020771699 0.09496587 -0.0040426175
000020 a8 e7 17 3d dd a5 93 3c 63 61 66 3e ce 80 51 3d
       0.03708616 0.018023426 0.22498088 0.05114823
000030 4f 76 e0 3d 25 e7 af 3d 6e 30 0e 3d 89 e9 79 3d
       0.109600656 0.08589009 0.034714155 0.061013732
000040 60 de fb 3d 96 3b fb 3d 0d 88 48 bc 56 ae 76 bd
       0.12298274 0.122672245 -0.012239468 -0.060224853
000050 e4 66 3b 3c cd 6b f5 3c 2d 1a 1e 3d 09 03 b4 3d
       0.011438105 0.02995863 0.038599182 0.087896414
000060 02 16 5d 3d 58 65 17 3d 8a 26 64 3d b0 7d 94 bc
       0.053976066 0.036961883 0.055700816 -0.018126339
000070 f2 d4 5e 3e bf c6 98 bc 3d 86 5f 3d 89 14 bc 3c
       0.2176092 -0.018649457 0.05457138 0.02295901
000080 85 1a e9 3d 0a 72 db 3d 99 24 11 3c bf 43 3d bd
       0.11382011 0.107151106 0.008858823 -0.046207186
000090 e5 69 9e 3c 15 d4 ea 3d 7d 1a 76 3d 92 c9 92 3d
       0.019337604 0.11466233 0.060083855 0.07167353
0000a0 7a bf 7a bd bd e3 8b bd fa 25 28 3d 20 b9 b5 3d
       -0.061217763 -0.06830547 0.041051842 0.088732004
0000b0 de dd 66 bd a0 65 c9 3c a1 47 41 3c 3d eb be 3c
       -0.056363933 0.024584591 0.011796863 0.02330553
0000c0 a2 80 6d 3d be 70 ca 3d c5 ea 81 3f a5 23 73 3f
       0.057984002 0.09884785 1.0149771 0.94976264
0000d0 ed 02 7f 3f c7 4c 80 3f a0 b1 7d 3f 48 c1 76 3f
       0.9961384 1.002343 0.9909916 0.96388674
0000e0 e6 bc 7e 3f 06 d3 7f 3f 89 5d 72 3f 53 53 80 3f
       0.99506986 0.9993137 0.94673973 1.0025429
0000f0 9b fa 7a 3f 2d f9 7c 3f f1 39 81 3f 21 a1 7b 3f
       0.98038644 0.9881771 1.0095807 0.9829274
000100 c5 f1 84 3f 87 28 77 3f 33 9f 82 3f a6 44 79 3f
       1.0386282 0.96546215 1.0204834 0.97370374
000110 7a 89 7e 3f 05 db 7b 3f d4 ba 7d 3f ba 89 79 3f
       0.9942852 0.9838107 0.991132 0.9747578
000120 68 6d 7d 3f ac 4a 7c 3f 8f 44 7e 3f 28 bf 88 3f
       0.98995066 0.9855144 0.9932336 1.0683336
000130 cb ed 7c 3f 5e 8a 7a 3f 09 79 73 3f 9a 6e 82 3f
       0.98800343 0.9786738 0.9510656 1.0190003
000140 fc 44 81 3f d2 60 7d 3f 00 8f 84 3f 74 77 7f 3f
       1.0099177 0.9897586 1.035614 0.99791646
000150 1b a5 80 3f 1a 57 7f 3f db ed 81 3f 25 4b 7e 3f
       1.0050386 0.9974228 1.0150713 0.9933341
000160 37 20 82 3f 41 6e 77 3f 58 b2 77 3f 41 16 72 3f
       1.0166081 0.9665261 0.96756506 0.94565207
000170 b6 1e 81 3f 36 94 83 3f 09 9f 74 3f db 17 7b 3f
       1.0087497 1.0279605 0.9555517 0.98083276
000180 71 86 7e 3f e1 d7 7c 3f 56 90 81 3f a4 12 7c 3f
       0.9942389 0.98766905 1.0122173 0.98465943
000190 7a 8c f0 3c c3 5a aa bb e3 94 80 bc 76 0c 1a 3c
       0.02936386 -0.005198808 -0.015695995 0.009402385
0001a0 85 bd 1a bc 92 b8 dd bc 47 f9 d9 3c d4 c2 3c 3c
       -0.009444599 -0.027065549 0.026608123 0.01152106
0001b0 a1 53 01 bd 29 38 2a bc 04 43 f7 bc e5 33 03 bb
       -0.031573895 -0.010389366 -0.030183323 -0.0020019945
0001c0 69 b5 19 3d ee 83 2e bd ed 00 20 bd 2a ca 6a 3c
       0.03752652 -0.042606287 -0.039063383 0.014330426
0001d0 c7 fb 1e bd ff 86 11 bc 80 d2 58 3c 7e ef 6b bb
       -0.038814332 -0.008882283 0.013233781 -0.0036000903
0001e0 4f d1 ad 3b a1 65 04 3d 2a c1 8f bc 05 26 39 3c
       0.0053044925 0.032323483 -0.017548162 0.0113005685
0001f0 18 e8 e0 bc e5 68 15 bd 2e 27 8b bc 59 4a fd 3c
       -0.02745442 -0.03647699 -0.016986456 0.03091924
000200 55 32 7f 3c c0 ee 48 bd 5e 31 1b 3c 7e c6 6f bb
       0.015575965 -0.049055815 0.009472219 -0.0036586816
000210 4c 9a 27 3d c2 35 00 3c f7 e3 9c bc 48 0d 9b bc
       0.040918633 0.007825317 -0.01915167 -0.018927231
000220 20 8a 65 3c af cb 1f 3d 0c e1 96 3c d5 74 6f 3c
       0.014009982 0.039012607 0.018417858 0.014615257
000230 ff 6e 4e 3c df 6c 1d 3b cd eb e9 3c c5 f8 d3 3b
       0.012599706 0.002402119 0.028554821 0.0064688646
000240 9a bd ca bc f5 b7 88 bc 72 29 30 bb 6f fb 3b bc
       -0.024748612 -0.01668928 -0.0026880172 -0.011473521
000250 c3 89 e9 bc 45 44 af bc 9b ff 8c 3e 8e 6c 9f 3d
       -0.028508073 -0.021394858 0.27538761 0.07784377
000260 b4 a6 e8 3c d5 12 9f 3c 16 4c e2 3d 71 f0 af 3c
       0.028399803 0.01941816 0.110496685 0.021476956
000270 0d aa c6 3d 21 bf 0b bc c1 00 08 3d f1 4f 3d 3c
       0.09700403 -0.008529455 0.033203844 0.011554704
000280 bf ff 5a 3e 46 92 46 3d c7 1f c6 3d 02 33 84 3d
       0.21386622 0.04847934 0.0967403 0.064550415
000290 ba f0 d1 3c ed f9 80 3d 49 28 11 3e 00 c2 02 3e
       0.025627483 0.062976696 0.14175524 0.12769318
0002a0 81 48 6b bc 19 44 77 bd 33 00 d7 3b d7 22 cd 3c
       -0.014360548 -0.060367677 0.006561303 0.025041027
0002b0 87 2e 1e 3d 91 57 be 3d ba 18 3f 3d 64 f4 23 bb
       0.03861859 0.09294046 0.04665444 -0.0025017494
0002c0 7c e4 59 3d 01 4c 1e bd 04 c4 61 3e aa 3b 05 bd
       0.053196415 -0.0386467 0.2204743 -0.032527603
0002d0 6f c0 6c 3d 11 e4 ed 3c cd 44 64 3d d7 e7 e2 3d
       0.057800706 0.029039415 0.055729676 0.11079376
0002e0 50 71 b4 3b e4 67 7d bd 7a c8 95 3c 21 66 b8 3d
       0.005506672 -0.061866656 0.018284071 0.090038545
0002f0 ff 9e 28 3d 40 3d 8f 3d 33 9e 75 bd 06 1b 88 bd
       0.041167255 0.069941044 -0.059965324 -0.06645779
000300 ec be 2f 3d 11 5f a1 3d 0e b3 5b bd e8 ec c2 3c
       0.042906687 0.078794606 -0.053637557 0.023794606
000310 ee 79 7e 3c ec 53 d0 3c bf 6a 87 bc 3b 08 d8 3d
       0.015532 0.025430642 -0.016530393 0.10548445

sequential_4_1/lstm_1_1/lstm_cell_1/Cast_1/ReadVariableOp/resource:0 f4 [50, 200]
000000 e2 a9 e2 bc 53 64 c9 bd a9 fa 20 bd 90 56 a3 3c
       -0.027668897 -0.098335885 -0.03930155 0.019938737
000010 36 9c 09 3d 0f 52 61 be e4 68 b2 bd 61 fc 65 bc
       0.03359624 -0.22003959 -0.087114125 -0.014037223
000020 ae 71 a8 be 41 17 c0 bd c5 a2 42 3e 5c 44 92 bd
       -0.3289923 -0.09379435 0.19007404 -0.07141945
000030 f3 67 1a 3e 7f 4b 27 be 12 96 b3 3d 69 1e b8 bd
       0.15078716 -0.16337393 0.08768858 -0.08990175
000040 9e 53 2b 3d 79 bf c4 bd cf 17 9a bd 1a c5 e8 bd
       0.04182779 -0.09606833 -0.075240724 -0.11365719
000050 6a f0 59 3c c1 58 3a 3c 8d d3 9b bd df 03 61 3c
       0.013301948 0.0113737 -0.076087095 0.013733833
000060 08 47 5b 3d c8 47 00 3c cd 8f 7e be f4 3b 66 bd
       0.053534538 0.007829614 -0.24859543 -0.05620952
000070 11 e3 fd bd a8 e0 bc 3d 10 b7 f0 bc 75 1f ff 3b
       -0.12396825 0.09222537 -0.029384166 0.0077857324
000080 99 85 7f bc 84 fe b3 3d 69 d6 a1 3d e0 0f 2c be
       -0.015595817 0.087887794 0.079022236 -0.16802931
000090 22 b2 c7 bc b2 77 dc 3d 87 de d5 3d ac 57 84 bd
       -0.024376933 0.107650176 0.10442834 -0.064620346
0000a0 1d 34 b1 bd 83 99 b1 3d 82 7e 2d bd 3e e0 40 3e
       -0.08652518 0.08671858 -0.042356975 0.18835542
0000b0 47 55 6e bc 94 f4 94 bd fc d6 c7 3c 1d f3 c9 bc
       -0.014546699 -0.07273212 0.024394505 -0.024652058
0000c0 6f 29 47 3d 12 b6 84 3d ec 52 b5 3d 11 18 42 be
       0.0486235 0.0648004 0.08853707 -0.18954493
0000d0 c6 9a 95 bc 05 f3 d2 bc 4d fd a9 3d 5e 0e 9d bd
       -0.018262278 -0.025750646 0.083002664 -0.07668756
0000e0 8e 8d 7f bd de 56 4c bd 15 1d 95 be 3b c3 18 bd
       -0.062390856 -0.04988753 -0.2912375 -0.03729556
0000f0 8d d7 fb bc ea 3e ec ba 06 dd 8e 3e 99 0f 5b bd
       -0.030742431 -0.0018024121 0.27903003 -0.053481672
000100 68 89 5b bc 54 98 03 be bf 17 15 3e d9 aa 9c bd
       -0.013399459 -0.12851077 0.1455984 -0.07649774
000110 23 5b 41 be 87 b2 31 bd 83 9f 78 bd 07 80 a2 3d
       -0.18882422 -0.043383148 -0.060698997 0.079345755
000120 64 27 ea 3c cd b2 0e 3e ab 7c 95 bd a8 a9 12 3d
       0.028583236 0.13935395 -0.07299169 0.035806328
000130 7e 75 7e be 00 7d f3 bd dd 19 70 be 6f 39 3f bd
       -0.24849507 -0.11889076 -0.23447366 -0.046685632
000140 ee f7 69 3b 9a 15 a3 3d 5f ef 62 bc a4 4f 18 bd
       0.0035700756 0.079631045 -0.013851016 -0.037185326
000150 10 d2 26 bc 8f 58 03 be d3 be 8b bc 1f 54 c3 3d
       -0.010181919 -0.12826751 -0.017058766 0.09537529
000160 6b 5f 54 3d b1 73 e3 bc 2a 9c 99 bd 2c 68 d1 3c
       0.05184881 -0.027765127 -0.07500489 0.025562368
000170 bd c0 1d 3d a0 c8 1f 3e d6 4c 79 3d 27 3e 85 bd
       0.038513888 0.15603876 0.060864292 -0.06505995
000180 7e 02 d7 ba ab 3c 25 3d 5c 45 8e bd 45 1f 36 3e
       -0.0016403941 0.04034106 -0.06946823 0.17785366
000190 02 16 9e 3b 05 a6 b7 3d 37 42 63 3d 93 31 1a be
       0.004824401 0.089672126 0.05548307 -0.15057974
0001a0 f7 fa 39 3d 1f 00 2d 3e 70 12 8e be 32 78 a1 bc
       0.045405354 0.16894577 -0.27748442 -0.019710634
0001b0 be cf b2 3d 77 fb 85 3c 5e f5 14 bd e4 7b 12 3d
       0.0873103 0.01635526 -0.036366813 0.035762683
0001c0 d8 8c 18 3e 9a f7 64 3d 29 f7 ff 3c f9 4a 90 bd
       0.14897478 0.055900194 0.031245785 -0.0704555
0001d0 69 ce 9b 3c 3d 03 78 3d f2 2a af 3c 5d ce 80 3a
       0.019019322 0.060549963 0.021382783 0.0009827126
0001e0 39 b1 25 3d d8 9b bc 3c bb f7 53 3e 0c 5a 13 be
       0.040452216 0.02302353 0.2069997 -0.14389819
0001f0 96 7d 7a 3c 21 be ad b9 59 c0 07 3e 77 d3 5f be
       0.015288731 -0.00033138788 0.13256969 -0.21858011
000200 b8 1d 70 bd eb 66 cd bd 9f ba 0b 3d a3 ee 2a 3e
       -0.058622092 -0.10029396 0.034113523 0.16692595
000210 5d 86 03 3d 5c b4 5f bd 15 25 9e 3d 2e 59 b9 ba
       0.03211056 -0.054615363 0.077219166 -0.0014140958
000220 04 ff 83 bd c9 14 0c 3d a7 cd 53 bc ae ac 41 be
       -0.06445125 0.03419951 -0.012927449 -0.18913528
000230 a5 f6 09 be ee 54 ff 3c 5a b2 91 3b 40 78 4b be
       -0.13472994 0.031168427 0.00444631 -0.1987009
000240 51 01 97 bd 4d cd fa 3c 23 d2 51 bd 75 6f b9 3d
       -0.07373298 0.030615473 -0.051225793 0.09054462
000250 83 11 3f bd d0 16 5f 3e ea 4d f1 3c 22 ea 06 be
       -0.04664756 0.21786046 0.029456098 -0.13175252
000260 73 90 78 bc 2c 39 d3 3c 30 70 c4 3c 3c 35 8d be
       -0.015171158 0.025784098 0.023979276 -0.27579677
000270 29 ce 0b 3e b3 24 de bc 82 9a d9 be 4e 4d ce 3d
       0.13652863 -0.027117109 -0.42500693 0.100733384
000280 d0 24 f4 bc 24 02 fd 3d 36 de f0 3c 60 c8 d8 3c
       -0.02980271 0.12353924 0.029402833 0.026462734
000290 12 f4 51 bd a5 93 3b 3d 18 24 84 be 2c 3c 63 bd
       -0.051258154 0.0457951 -0.25808787 -0.055477306
0002a0 87 41 01 be 37 0e 8d bd 20 ec 6e 3e c5 68 3b 3c
       -0.12622653 -0.06887477 0.23332262 0.011438553
0002b0 3a 0b a3 bc d5 d8 c2 3d 0a cd ae 3d d7 5e 50 be
       -0.019902814 0.09514014 0.08535202 -0.20348679
0002c0 82 11 0a be 3e a9 76 bd 84 54 a1 3d 1e 82 d1 bd
       -0.13483241 -0.060219996 0.07877448 -0.10229896
0002d0 75 5e 8f 3d d3 04 91 bd b4 34 c3 be 15 ba 38 3d
       0.07000438 -0.07080998 -0.38126147 0.045099337
0002e0 97 72 a5 bc d2 0b b1 bd 09 dd 08 be 73 38 32 3e
       -0.020196242 -0.08644833 -0.13365568 0.17404346
0002f0 06 47 bf bb 7e 2a 61 be f7 eb cb bd 7f ad 80 3d
       -0.005837324 -0.21988866 -0.09957116 0.06283092
000300 0e 3b 07 3e a3 3c eb bc f3 ff 0e bd 56 73 2a be
       0.13206121 -0.028715437 -0.03491206 -0.1664556
000310 ed 48 44 bd 37 99 d9 3d 6c 6f b5 3d 7b fc 70 3c
       -0.04792111 0.106249265 0.08859143 0.014708634
000320 b3 01 3f bd eb ab b3 3d 64 6f ff bd a3 e2 9a 3d
       -0.04663248 0.08773025 -0.12472418 0.07562759
000330 01 9a b7 3d b1 ed bf 3d 4d 86 0d 3e 3b 43 2b 3c
       0.08964921 0.09371508 0.13820763 0.010453041
000340 69 12 f5 3d 49 d8 8d 3d 3f 67 f2 3d 05 87 0f 3e
       0.11966402 0.06926019 0.11836099 0.1401635
000350 ca a1 7d bd 9e 20 82 3d 9f e5 41 3d 9d 1e a6 bd
       -0.061921872 0.063538775 0.047338124 -0.08111308
000360 3f b0 cd bd d5 74 a9 3d f5 a9 4f 3d 01 34 b7 3d
       -0.10043382 0.08274237 0.050699193 0.08945466
000370 58 fc ee 3d 54 32 aa 3d aa 51 e1 3b b4 05 a2 3d
       0.116692245 0.083103806 0.00687619 0.07911244
000380 d1 48 1d 3e fb 10 96 3d a6 89 10 3e 20 e2 5e 3d
       0.15359809 0.073274575 0.14115009 0.05441487
000390 84 29 11 be bd af 17 3c 9c 13 17 3c a4 12 00 3d
       -0.14175993 0.009258208 0.009220984 0.031267777
0003a0 d4 13 83 3d d7 6a 01 bd ef e7 63 bc 2b 42 ad bd
       0.06400266 -0.03159603 -0.013910278 -0.08459886
0003b0 71 3a 92 3c 22 21 6a 3e b9 7b 10 3e 6a e5 09 be
       0.017850133 0.22864202 0.14109696 -0.13466421
0003c0 fe 11 55 3d cd 18 0b 3e f2 04 e8 3c b4 0c dc bc
       0.05201911 0.1358368 0.02832267 -0.026861526
0003d0 ad 51 42 be 9b 6e 6f 3d 04 a8 98 bd f6 16 08 3e
       -0.1897647 0.05845509 -0.074539214 0.13290009
0003e0 c3 32 6e 3e b9 bc 7f bd 26 fb 0b 3d f0 f7 08 3e
       0.23261552 -0.06243584 0.03417506 0.1337583
0003f0 d2 c2 47 3d 42 0e 02 3d 15 31 81 3d ec d3 0e 3d
       0.04876978 0.03175188 0.0630819 0.034870073

sequential_4_1/lstm_1_1/lstm_cell_1/Cast/ReadVariableOp/resource:0 f4 [1, 200]
000000 1c eb 25 3e 57 84 38 3e f8 63 a0 bd 5c 58 23 bd
       0.16202968 0.18019234 -0.078315675 -0.039879188
000010 12 6c 4e 3e b8 04 f4 bd 3b 9a 52 3d 9f 77 1a 3e
       0.20158413 -0.119149625 0.051416617 0.15084694
000020 31 60 1e be 05 86 4c bd d8 87 69 3e 09 00 84 3c
       -0.15466382 -0.0499325 0.22805727 0.016113298
000030 ac 23 7b 3e c8 a4 93 3e 36 48 4c 3e 3d 90 49 3e
       0.24525326 0.28836656 0.19949421 0.19683929
000040 c9 44 45 be 65 21 20 bd ff 6b 05 bd 4b c0 52 3d
       -0.1926452 -0.039094348 -0.032573696 0.051452916
000050 14 34 fb 3d 96 6f 14 bd db 11 37 3e 21 38 08 be
       0.122657925 -0.03623923 0.17877905 -0.13302661
000060 f5 f5 7e 3e f0 56 5e be 45 26 82 3d 4b 4e 97 3e
       0.24898513 -0.21712852 0.063549556 0.2955192
000070 50 13 ef 3e 56 84 8d be 88 4a 49 3e ff 35 36 3e
       0.46694422 -0.27640027 0.19657338 0.17794035
000080 24 4e 58 bc 9a 0f 29 bc db 4e 63 3d 88 9f 3e bd
       -0.013202224 -0.010318661 0.055495124 -0.04653886
000090 8b 97 3b be 71 2f 03 3e 0d cc 2d bd 5f 1d 79 3d
       -0.18319528 0.12811066 -0.042430926 0.060819026
0000a0 3a b1 94 bd c4 22 90 3d 9c 6d 0e be a6 b6 06 be
       -0.07260366 0.07037881 -0.13909 -0.13155612
0000b0 8a f6 7a bc 36 ae 1a 3e 27 04 fd 3d 9d 2c 72 3e
       -0.015317569 0.15105519 0.123543076 0.23649831
0000c0 1b a9 c7 3d 62 2d 9d bd 8b 01 33 3e 0c be 54 be
       0.09749051 -0.07674672 0.17481057 -0.20775622
0000d0 b3 83 96 3c 47 d3 4a 3e 31 cb 02 be 08 43 48 be
       0.018373346 0.19807158 -0.12772824 -0.1955682
0000e0 3c 5b 13 3e 2e 61 12 bd 0a 10 1c be d0 fa ff 3b
       0.14390272 -0.03573721 -0.15240493 0.0078118816
0000f0 3e 88 74 3b 55 93 d7 bc 6b 24 60 3e 8d 7b b5 3d
       0.0037312652 -0.02631537 0.21888892 0.08861456
000100 9c 9e 25 3e da f3 4b 3d 2f 55 63 bd 80 1b 81 3d
       0.16173786 0.0497931 -0.05550116 0.06304073
000110 f9 51 03 be f2 22 3e be e6 06 69 3d 86 72 5d 3e
       -0.12824239 -0.18568018 0.056891344 0.21625718
000120 5d 06 5b 3d 92 75 01 be 11 a3 11 3e a3 60 1d be
       0.053472865 -0.12642506 0.14222361 -0.15368895
000130 d8 d8 07 be 9c 42 95 3e 83 11 4c 3e 65 f7 cb be
       -0.13266313 0.2915238 0.19928555 -0.39837185
000140 78 96 b2 bd ea 52 80 bd 33 43 a4 be 35 2d 4c 3e
       -0.08720106 -0.062658146 -0.3208252 0.1993912
000150 37 e8 85 3d 85 0c 80 be b3 45 8e bd 1b b0 3a 3e
       0.06538432 -0.25009552 -0.06946888 0.18231241
000160 f1 96 86 bd 6f 2d 1d bd c3 51 b6 bc ea 1d 2c 3e
       -0.065717585 -0.038373407 -0.022255784 0.16808286
000170 ad 00 13 3e 7d 75 67 3d 01 84 1f 3e 36 da 12 3d
       0.14355727 0.05650853 0.15577699 0.035852633
000180 ff 7b 5e 3e 3d ad 6b 3e ff 01 84 3d b1 52 59 be
       0.21726988 0.23015304 0.06445693 -0.2122295
000190 dd 0b 85 3e aa 01 ea bd 9d 37 2a be 17 a8 c2 3d
       0.25985613 -0.11426099 -0.16622777 0.09504717
0001a0 c6 89 14 be c2 7b cb bd c9 31 17 3e 77 99 1f 3e
       -0.14505681 -0.09935714 0.14765085 0.15585886
0001b0 ee 54 46 bd f7 ac 22 be 10 51 b8 be 32 f4 29 3e
       -0.04842084 -0.15886293 -0.35999346 0.1659706
0001c0 8f c7 2c 3e 4e 47 36 be de c7 dc bc 44 05 14 3e
       0.16873 -0.17800638 -0.026950773 0.14455134
0001d0 ca 45 2a be 01 cb 78 be e9 31 10 bd 1d e7 b8 3d
       -0.16628185 -0.2429619 -0.035203848 0.09028456
0001e0 d8 44 61 3d ca db 5d 3d 03 65 40 be c1 5c 27 be
       0.054997295 0.054164685 -0.18788533 -0.16343977
0001f0 bf 44 44 be 3b 01 cd bd 99 75 54 be ac da 0a bb
       -0.1916685 -0.1001 -0.20747985 -0.0021187468
000200 46 e2 3d 3e c2 55 17 bd ed 90 49 3e 7e 41 5e be
       0.18543348 -0.03694702 0.19684191 -0.21704671
000210 28 9f 1d bd aa ac 8e be 79 1a 3e be 33 d9 44 bd
       -0.03848186 -0.27866107 -0.18564786 -0.0480587
000220 30 49 7f bd 1f e8 27 3e d6 ec 19 3e 01 8f 58 3e
       -0.062325656 0.16397141 0.15031752 0.21148302
000230 f0 10 9f bc c2 8b 9b bb e0 44 bd 3d 8b 0f 7d bd
       -0.019417256 -0.004746885 0.092416525 -0.0617824
000240 8d a6 82 3d e0 1c 4f be d5 9d c0 bd fa c5 d0 bd
       0.06379423 -0.20225859 -0.09405104 -0.10194011
000250 09 9b 85 bd 8f 29 41 be dc 65 14 3e cc fd b5 bd
       -0.06523711 -0.1886351 0.14491981 -0.088862985
000260 75 1c 94 3d bd 13 43 3e bd 4c dd bd 1d c5 8c bd
       0.0723199 0.19050498 -0.10805652 -0.06873534
000270 09 60 ee 3c ef d7 cf bd 84 90 07 be c9 89 7b 3e
       0.029098528 -0.10148608 -0.13238722 0.2456428
000280 d8 5e 9e 3d 41 18 21 3e 83 2c 2d 3e c9 60 c4 3e
       0.07732934 0.15731908 0.16911511 0.3835509
000290 8f cc 0d 3e db 6c ac 3d dd 5f c1 be 38 3b 0c 3d
       0.13847564 0.084192 -0.3776845 0.034236163
0002a0 f7 bd f5 bc fa 16 54 3d 07 d6 87 3e 40 c9 82 3e
       -0.029997809 0.051779725 0.26530477 0.25544167
0002b0 a6 cb b2 3d f1 89 47 be d1 13 91 3e b6 86 01 bf
       0.08730249 -0.19486214 0.2833543 -0.5059618
0002c0 53 51 38 3e 35 24 ef 3e da 64 a5 3e ac 08 c6 be
       0.17999773 0.4670731 0.32303506 -0.3867849
0002d0 a1 bf a0 3d f2 61 86 ba 82 e8 32 bf 0a ec a9 3b
       0.0784905 -0.0010252579 -0.6988603 0.0051856088
0002e0 73 6e fd 3d e6 d3 d4 be a4 df a0 bd b2 a5 3e 3e
       0.12374582 -0.41567916 -0.07855156 0.18617895
0002f0 43 38 8a 3e 88 48 ed bd 43 66 bf bc a3 c6 cf 3d
       0.2699605 -0.115861 -0.023364192 0.10145309
000300 a8 16 d6 3c ca 75 f6 bd 8b 78 bb 3c 6e ac e4 bd
       0.02613385 -0.12034185 0.022884628 -0.11165701
000310 82 6a 30 bd 4b 56 48 3e b9 dd 31 3f 9f d7 89 bc
       -0.043070324 0.19564168 0.69478947 -0.016826449

sequential_4_1/dense_4_1/Cast/ReadVariableOp:0 f4 [50, 1]
000000 65 bb 03 3f 30 65 c9 be 35 a1 51 be 2d d1 14 3e
       0.51457816 -0.39335012 -0.20471652 0.14532919
000010 32 a8 be be 3c 2a 7a bc db f5 84 3d 97 bc 29 3b
       -0.37237698 -0.0152688585 0.06492206 0.0025899762
000020 fe 9e ee 3d 13 1a e8 bd 04 9c b6 be f2 d1 e3 3d
       0.11651419 -0.11333098 -0.35665905 0.11124028
000030 a2 af 28 3e 39 e5 9e be 8d c3 ff bc a7 93 b7 3e
       0.16473249 -0.31034258 -0.031221176 0.35854837
000040 a9 fb 4b be dd 21 d5 be 10 d2 43 3d cf 07 6c be
       -0.1992022 -0.41627398 0.047807753 -0.23049854
000050 07 65 8f 3e df 03 4b 3e fe da 0a be a9 ab ee bd
       0.28006765 0.19825695 -0.13560101 -0.11653835
000060 b5 e6 c1 be 4b 7c 87 3e b3 73 48 be 50 97 80 3e
       -0.37871328 0.26462016 -0.19575386 0.25115442
000070 66 7b 9e 3e 6c 10 87 3e 4d 9d c2 3d b9 61 c1 be
       0.3095352 0.26379716 0.09502659 -0.3776987
000080 05 89 81 be 69 41 22 be 79 a4 31 bd 5f a7 91 3e
       -0.2529985 -0.15845264 -0.043369744 0.28448007
000090 28 32 2e bd 74 5a fb 3d 11 9c 32 3e 6d 2b f6 3d
       -0.0425283 0.12273112 0.17442347 0.120200016
0000a0 e0 78 84 3e 73 b2 41 3e c8 4d e4 3d e6 7a e6 bd
       0.2587347 0.18915729 0.11147648 -0.1125391
0000b0 bf c5 b0 bd 5b ff 7d be b3 b9 c8 bd 20 16 a5 be
       -0.08631467 -0.24804442 -0.09801044 -0.32243443
0000c0 0f 7a 46 be 72 7a cb be
       -0.19382499 -0.39741856
