models/SimpleRNN_model_mae.onnx (onnx, 19341 bytes, 4 tensors)

sequential_3_1/simple_rnn_1_1/simple_rnn_cell_1/add/ReadVariableOp/resource:0 f4 [50]
00000000: 7aef c4bb 7f9f ec3b 942a 40bc 3582 b23c
00000010: 2a56 99bd ee62 a63c 8041 2fba bd85 98bb
00000020: a764 553c a1b7 c93b 30e4 873d 1715 93bc
00000030: 2437 be3c a996 f8bb a981 5d3b 67d5 883c
00000040: a001 693c 8d52 1d3c 819a 18bd 995e 29bb
00000050: 0aa7 14bc d076 9abb 8f32 f7bc 8a36 05bc
00000060: c13b 8ebc 709e 503c 6674 47bc 6748 48bc
00000070: d67e 463b a6a5 dcbb 5573 31bc bd3c 64bb
00000080: 2264 f8bb 981b 603c f432 afbc e53c 703b
00000090: 7f13 9ebb 1f17 7c3c 2bc0 f53b c0e5 7138
000000a0: 64f3 b3bc 9175 893b 5e3e 073b 6a5a be3b
000000b0: 3ae8 a2bc 5d4b 023c 40b2 673a f6cc ed3a
000000c0: 1e87 c43b 57ee 8bbb
-0.006009993 0.007221162 -0.011728901 0.021790603 -0.074871376 0.020310845 -0.00066854805 -0.0046546147
0.013024486 0.0061559235 0.0663532 -0.017954392 0.023219652 -0.0075863195 0.0033799207 0.01670332
0.014221579 0.009602201 -0.03725672 -0.0025843738 -0.009073028 -0.0047138706 -0.030175475 -0.008130679
-0.017362477 0.012733087 -0.012173748 -0.012224293 0.0030288002 -0.006733614 -0.01083072 -0.0034826242
-0.007580296 0.013678454 -0.021386601 0.003665739 -0.0048241015 0.015386372 0.007499715 5.767285e-05
-0.021966644 0.004194923 0.002063654 0.005809118 -0.019886125 0.007952538 0.0008838512 0.0018142748
0.0059975525 -0.0042703557

sequential_3_1/simple_rnn_1_1/simple_rnn_cell_1/Cast_1/ReadVariableOp/resource:0 f4 [50, 50]
00000000: 748c 23be 24cc 123e 038f 583d 7f97 a3bd
00000010: 33da b7bd fab4 903d 0802 393e dba4 723e
00000020: e55f 75bd aa3e 64bd 0993 b3bd 677a 8d3e
00000030: 6fc7 763d 43ea f43d 9797 8fbd 6aea a43d
00000040: 105f 4b3d c121 3cbc e7fe 91be 01ae 253e
00000050: 4cd2 8bbd 4270 003d ae15 c3bb ae44 7f3e
00000060: 62ed 2d3e 8c3e e13d a2fa 68be ee85 fabd
00000070: 818e 21be 9f79 39be 9615 21bd 3d4e 1fbe
00000080: 3f01 193d a2fb 15be ecc3 03be 9b1d 3bbe
00000090: 08c1 d6bd ce50 383e 3ef8 e63c 9784 52bc
000000a0: c121 203e 3406 63be 1eb8 1d3e de7f e4bd
000000b0: b25d 063d 60cd 243e 29ad c73d ccb4 c9bc
000000c0: 7484 e3bd 37f7 863d 9a05 a53d 1c26 17be
000000d0: 68be bc3d 2f8d cd3b e2de b5bc 2d0e cf3d
000000e0: 50b5 af3d 09cb 17be f854 ca3d d534 6cbe
000000f0: d289 cf3d cb5d 173e 0f2f 7bbd 478d 2c3e
00000100: ce40 6f3d 204c 8bbc 1423 27be a984 6c3e
00000110: 1316 86bd 6747 8f3e dd3f 67bd 3ddb 6fbd
00000120: 01ef cc3d 9cad 6ebd a0cd 553e 4e9f 73bd
00000130: 052b c63d 9eb5 0e3e 6b0f 04be 3aed c0bd
00000140: b457 543c abe3 4dbd b9a3 c6bd 69be 1cbe
00000150: bd82 18bd ac04 b03e 73bc e73c 0de7 15be
00000160: f3a2 293e 008f 9dbd a9d7 6ebe 4223 b0bc
00000170: ca06 3bbe 9811 c7bc 557f 0b3e b52b 2fbe
00000180: 7a15 7cbd 545b 753e 8eb9 95bd 7af0 5e3d
00000190: b865 523d 7056 11bc 5e01 453e 86f7 4a3e
000001a0: 23f1 6dbe 910f 77be f8e1 4f3e 73f4 ec3d
000001b0: 1614 a93d 060d 933d fb23 10bd 6918 adbd
000001c0: bd3b 3fbe 3b4b 3f3b 4e1e 94bd b747 c03d
000001d0: 06dd 55be dfd3 09be c299 f7bc 7b74 c6bd
000001e0: 3c80 1f3d db52 a33e 92e2 563c 1c06 95bd
000001f0: 8325 66bd b6bd 153e 535e f13c 8966 c93d
00000200: d661 93be 33eb bf3d f0ea cebd 7a32 033e
00000210: 9cfd 9ebd 7ad7 343c 72a3 2d3d c88f f4bd
00000220: a693 bb3d 9fcd a53a fca4 853d 2a29 783d
00000230: 3c8b c73c 6e10 3ebd eed8 44be acfe e7bd
00000240: 02be cb3d 5ffb 833d 8c1b 383e 6c8c a53d
00000250: 36c8 df3e 9173 c43d 82dc 203e f153 463e
00000260: 0dd8 a3bd c833 31bd 038a a53e faf9 f3bc
00000270: 83f9 47bd bde8 143e ac01 123d 6ced f8bd
00000280: 568a 2cbe 0309 5cbe 21da 2dbe 5811 3c3c
00000290: e979 7cbe 39be 8a3e c507 3e3e 75a4 5d3e
000002a0: 2aa9 d03d 0f7e 803d c7aa 0abe 555d 7e3d
000002b0: c0e7 35bd d66b cf3d a3f6 453e 0eeb 98be
000002c0: d612 f6bd 7548 a2bd 1acb 8f3c 4e9d 79bd
000002d0: 7204 5d3c d1c3 1cbd 2bf3 d2bd 6e5a 523d
000002e0: 05f4 233e 307f 36be bab9 ec3d 3d4c c0bc
000002f0: 40e8 513e fe66 183e 1124 f33a 9a86 42bd
00000300: 3ef1 b3bd 489c 713e a183 18bc c629 fdbd
00000310: 5b90 523b 6d37 ad3d 106f 0a3e c94b 983d
00000320: 3fe1 8abe 3db2 003e d7ee f2bc 3ad1 dcbc
00000330: dabd 8a3c f598 babb c64d 8fbd fe0d 393e
00000340: 5ae6 01bc be6a 42bd e702 14bd ed47 66bd
00000350: d9a5 5ebd 1b12 023e b14a 2cbe cb57 abbd
00000360: cb5f 69be bf1e c43d ef16 f73d af66 35be
00000370: 2b85 a4bc 7585 b4bc dd26 393e 52be 6abe
00000380: d8e5 213e fe30 bc3d f2bf 49be a214 5abe
00000390: a7ff 55be 92b4 383e eb89 5a3d 4450 20be
000003a0: 790a 83be 1cab 10be 9b0c f73d e220 983e
000003b0: 86ca 1a3e f80e c5bd 4f89 44be 01db 1c3b
000003c0: c903 2e3e 17f7 813d d16d 6c3d b2a6 7e3d
000003d0: 0b82 aabd 2569 9c3d fa7f ddbd 03f6 ae3d
000003e0: 52a1 d9bd 1e41 4b3d 1c2c 6a3d c084 8ebd
000003f0: 7f4e 833e fb1f 0c3e 164a 12bb 7723 e23d
-0.15971547 0.14335686 0.05287076 -0.0798788 -0.08977165 0.070657685 0.18067181 0.236957
-0.059905905 -0.055723824 -0.08768279 0.27632448 0.06024879 0.119587444 -0.07011335 0.080525234
0.049651206 -0.011482657 -0.28514788 0.16179658 -0.0682722 0.031357057 -0.005953512 0.24928543
0.16985086 0.10998258 -0.22751859 -0.12232576 -0.15777017 -0.18112801 -0.039327227 -0.1555719
0.037354704 -0.14646772 -0.12867707 -0.18273012 -0.104860365 0.17999575 0.028194543 -0.012848995
0.15637876 -0.22170335 0.15402266 -0.11157201 0.0328042 0.1609397 0.097498246 -0.024622343
-0.11109248 0.06590121 0.08057709 -0.14760631 0.092160046 0.006272934 -0.022201005 0.10110126
0.085795045 -0.14823546 0.09879488 -0.23067029 0.10133709 0.14781873 -0.061324175 0.16850768
0.058411412 -0.017004073 -0.16321975 0.23097481 -0.06547179 0.27984163 -0.05645739 -0.05855869
0.10006524 -0.058271036 0.20879221 -0.059478097 0.09676174 0.13936469 -0.12896506 -0.094202474
0.012960363 -0.05026595 -0.09699196 -0.1530701 -0.037234057 0.34378564 0.028288102 -0.1463892
0.16566066 -0.07693291 -0.23324455 -0.021501187 -0.18264309 -0.024300382 0.13622792 -0.17106517
-0.06154392 0.2396062 -0.073107824 0.054428555 0.051366538 -0.008870706 0.19238803 0.19820985
-0.23236518 -0.24127032 0.20301044 0.115700625 0.08255784 0.071802184 -0.035190564 -0.084519215
-0.18675132 0.0029189128 -0.07232343 0.093886785 -0.20885095 -0.13459729 -0.030224685 -0.09690186
0.038940653 0.3189915 0.013115542 -0.07276556 -0.056188118 0.1462315 0.029463923 0.0983401
-0.2878558 0.093710326 -0.101034045 0.12812224 -0.07763216 0.011037702 0.0423922 -0.119414866
0.09159021 0.0012649781 0.06525609 0.060586132 0.024358384 -0.046402387 -0.19223377 -0.11327872
0.099483505 0.064444296 0.17979258 0.08083424 0.43707436 0.09592355 0.15709117 0.19367959
-0.08000193 -0.043262273 0.32331857 -0.029782284 -0.048821937 0.14541908 0.035646126 -0.1215466
-0.16849646 -0.21487813 -0.16977741 0.011478744 -0.2465588 0.27098253 0.18557651 0.21644767
0.101885155 0.06274044 -0.13541709 0.062100727 -0.044410467 0.1012799 0.19332366 -0.29866832
-0.120153114 -0.07923976 0.017552901 -0.060941033 0.013489829 -0.038272683 -0.10300287 0.05135577
0.16011055 -0.17821956 0.11558862 -0.023473853 0.20498753 0.14883038 0.0018550177 -0.047491647
-0.08786248 0.23594773 -0.0093087265 -0.12361483 0.00321295 0.08457837 0.1351893 0.0743633
-0.27124974 0.12567993 -0.029654903 -0.026955236 0.016936231 -0.0056945034 -0.06997256 0.18071744
-0.007928455 -0.04746508 -0.03613558 -0.056220938 -0.054357383 0.12702219 -0.16825368 -0.083663546
-0.22790448 0.09576177 0.12064921 -0.17714952 -0.02008303 -0.022036294 0.18081231 -0.22924164
0.15810335 0.09189032 -0.19702128 -0.21296933 -0.20898305 0.18037632 0.053354185 -0.15655619
-0.25593928 -0.14127773 0.12062951 0.29712588 0.15116319 -0.09621996 -0.19193004 0.0023934247
0.16993631 0.06345957 0.057721917 0.06217069 -0.08325585 0.07637242 -0.10815425 0.08543017
-0.106264725 0.049622647 0.057170972 -0.06958914 0.25645825 0.13684075 -0.002232199 0.11041921

sequential_3_1/simple_rnn_1_1/simple_rnn_cell_1/Cast/ReadVariableOp/resource:0 f4 [1, 50]
00000000: 51bd b43d a5ae 08be cd2f 7e3e 7d92 b73d
00000010: 4621 863e cdef 9dbe db8d 8fbe aede 63be
00000020: da94 dd3c e2ef 2bbd e854 38be a161 733e
00000030: 7198 c23d e423 ba3d 3f0f ad3d 735c ebbd
00000040: 66c0 3dbe 0175 973c df7d 90be 3944 bd3b
00000050: 8a35 82be 2f02 be3e a95e f7bd 4b8b 393d
00000060: 557e 953e 8a5c b53d 7b7e e83d 04d6 833e
00000070: 1be0 bd3e d348 713e e977 433d 0490 df3d
00000080: e3ff 9fbe 2317 cdbc 0aba f6bc 6b3e 803d
00000090: f659 973e 71a3 8abd 8a11 ec3d a7a6 033d
000000a0: 48e4 853e ec3a 1bbe d822 a73e 0cf6 4d3e
000000b0: eee5 a93e cb84 3abe d1c2 ab3e dcbf b13d
000000c0: 3be9 ed3c 6ae7 bf3e
0.08825172 -0.13347872 0.24822922 0.08963487 0.2619726 -0.30847016 -0.28037915 -0.22252914
0.027048517 -0.041976817 -0.18001139 0.23767711 0.09501732 0.09088877 0.084501736 -0.11492243
-0.18530425 0.018488409 -0.28221032 0.005775955 -0.25431472 0.3711104 -0.12078602 0.045298856
0.29197946 0.08855541 0.11352249 0.25749218 0.3708504 0.23562936 0.047721777 0.10916141
-0.31249914 -0.025035447 -0.030118007 0.06261905 0.29560822 -0.06769455 0.11526783 0.032141354
0.26150727 -0.15159196 0.3264377 0.2011339 0.33183235 -0.18214719 0.3354707 0.086791724
0.029041877 0.37481242

sequential_3_1/dense_3_1/Cast/ReadVariableOp:0 f4 [50, 1]
00000000: c537 c53d 9523 813d 7283 9c3e 4864 ec3c
00000010: a5ad 5e3e cd5b 02be 6d87 50be dccf 133d
00000020: 803c 4cbd 65c1 a9be 4daf 2bbc 0fd4 313e
00000030: 997f 9a3e d9d2 273e bf1b 24bd 5bdf f33d
00000040: cf93 693e baef 0e3d 0de7 5bbe 3d60 ddbd
00000050: eb0f f3bd 1022 7d3e b4a5 27bd 8564 a43d
00000060: 37a0 1b3e 693e f43d 2d78 3ebd ac6b 883e
00000070: 66fc aa3e 1e67 29be 226e 063d e4e9 d43d
00000080: 2e08 c2bd a703 9b3e 4e33 30be 24b1 163d
00000090: 9b1b 6a3e 28c1 48be ebfd 8c3e 5346 86be
000000a0: 659b 573e d40e 50be 1bd3 a93e 6862 393e
000000b0: b918 823d 8ffe e2bd d8ff 813e 502a 0c3e
000000c0: 0096 543d 47d8 a53e
0.09629778 0.06305615 0.30569035 0.028856412 0.21745928 -0.12730332 -0.20364161 0.036086902
-0.049862385 -0.3315536 -0.010478807 0.1736605 0.30175474 0.16389026 -0.040065523 0.11907836
0.22810291 0.03489659 -0.21474858 -0.108093716 -0.118682705 0.24720025 -0.04092951 0.08026985
0.15197836 0.11925966 -0.046501327 0.26644647 0.3339569 -0.16543242 0.032819875 0.103961736
-0.094742164 0.30276224 -0.17207071 0.03679003 0.22862093 -0.19604933 0.27537474 -0.26225528
0.21055372 -0.20318156 0.33168873 0.18103945 0.06352372 -0.110837094 0.25390506 0.13688016
0.051900864 0.3239157
