models/SimpleRNN_model_mse.onnx (onnx, 18636 bytes, 4 tensors)

sequential_1/simple_rnn_1/simple_rnn_cell_1/add/ReadVariableOp/resource:0 f4 [50]
-0.008021653 0.020323565 0.0045918236 0.009284933 -0.005462796 -0.0050157546 0.0023920203 0.0011292337
0.00028559339 -0.0021915822 -0.01739541 -0.0028020614 -0.0013188841 0.0019392571 0.0029088997 0.03660797
-0.0074951984 -0.01398017 0.008626847 -0.009619632 -0.008346479 -0.002844198 0.00047584754 0.0023614445
-0.0026594603 0.0015058017 -0.019387992 0.008225782 0.0028564506 -0.009605407 0.0024151537 -0.0043769362
0.0045893467 -0.0025945415 -0.0026369684 0.0063883523 0.007959784 -0.0074534523 0.0045619817 0.026456952
0.0031549633 0.006601755 -0.0036659038 0.00075304863 -0.01573866 -0.002816522 -0.0003844745 0.016295964
0.00658317 0.0029938633
00000000: 406d 03bc 9b7d a63c 0277 963b d51f 183c
00000010: 4101 b3bb 335b a4bb 71c3 1c3b cc02 943a
00000020: b2bb 9539 a6a0 0fbb d280 8ebc caa2 37bb
00000030: 68de acba ac2e fe3a 3da3 3e3b 3df2 153d
00000040: 489a f5bb 150d 65bc 9e57 0d3c a99b 1dbc
00000050: acbf 08bc b965 3abb 2d7b f939 77c2 1a3b
00000060: 574a 2ebb 525e c53a 91d3 9ebc 6ec5 063c
00000070: 4a33 3b3b ff5f 1dbc 8e47 1e3b 676c 8fbb
00000080: 3b62 963b 2f09 2abb fdd0 2cbb 6255 d13b
00000090: c169 023c 173c f4bb ad7c 953b 40bc d83c
000000a0: 80c3 4e3b 8953 d83b a93f 70bb 3d68 453a
000000b0: 5dee 80bc 6695 38bb 4b93 c9b9 1d7f 853c
000000c0: a2b7 d73b b134 443b

sequential_1/simple_rnn_1/simple_rnn_cell_1/Cast_1/ReadVariableOp/resource:0 f4 [50, 50]
-0.0027511981 0.050953098 -0.12433064 -0.10856629 0.0644961 0.38899788 0.022073818 0.08638165
0.020182993 0.13373882 -0.022682115 0.074291155 0.12904567 0.0024373413 0.029954428 0.07861955
0.12680635 -0.42438594 -0.046915956 0.022701945 0.0046863942 0.07653362 0.2306654 -0.10442791
-0.12938541 -0.20958544 0.22995427 0.1442255 0.27767304 -0.13968328 0.0727111 -0.1301423
0.009082631 -0.12948371 0.0034826535 -0.059640557 -0.10146207 0.23372321 -0.07832383 0.029397033
0.024201436 -0.035150066 0.22295877 -0.22022164 0.15630859 0.1396316 0.10453959 -0.059576374
-0.08902585 -0.08126943 -0.21654227 -0.0048308717 -0.13589184 -0.019207686 -0.016219834 0.07427016
-0.19918169 0.42662495 0.07568526 -0.28585747 0.18510869 0.003744245 -0.016386138 -0.04354017
0.08884768 0.25269893 0.039760984 0.17502393 0.023529353 -0.18044372 -0.05887362 -0.026917981
0.22208303 -0.08416954 0.017490478 0.095584035 -0.102691196 0.19550715 0.017704366 -0.124379195
-0.12650532 -0.1432689 -0.22069389 0.12177878 0.031166712 0.21287929 -0.04258313 -0.16794045
-0.11168876 -0.014710739 0.20910692 -0.10853804 -0.08619146 0.015031636 -0.031276718 0.008669577
0.14733441 -0.060791045 0.03719512 -0.24333093 -0.11071467 -0.024649914 0.05690547 0.13080645
0.07937639 0.1552473 0.042823717 0.17490648 0.23674257 -0.25736776 0.14173667 0.09826208
-0.03542827 0.039999288 0.10695554 0.3195965 0.3162565 0.008558952 -0.19839951 -0.10646233
-0.06715505 -0.09528815 -0.12032907 0.014081513 -0.060549866 0.06624788 -0.024696102 0.034419872
-0.18815511 0.04541614 0.014499961 0.081735425 0.26655865 -0.046469763 0.023096057 -0.2321206
0.034332868 0.073790945 0.08075387 0.06573245 -0.21678507 0.08861284 0.1884401 0.14718415
0.10514924 0.09204087 0.121558234 0.2142023 0.14712305 0.3163069 0.10814182 -0.016604466
-0.00657185 -0.0420695 0.2638235 -0.012738559 0.1403282 0.10286196 0.013166494 -0.20185216
0.09165929 0.1512095 0.0022617609 -0.24139655 -0.078066215 -0.12309251 0.25818542 0.043640953
0.17867768 -0.01367792 -0.28260872 -0.15610473 -0.09596551 -0.097835176 0.018244835 -0.17086364
0.03815938 0.031031553 0.014395836 0.06946201 0.32203332 0.076992035 0.098685704 0.056556392
-0.35303575 0.032455523 0.20369609 0.14062214 0.07030313 0.102513015 0.12560566 -0.002256941
-0.16100153 0.1456676 -0.055923197 0.03749189 -0.105634324 -0.10044343 -0.07284453 -0.23594731
0.027755 0.046724763 0.20797974 0.104472876 0.1518489 0.2218681 -0.110886134 0.14680769
-0.09183036 0.21447285 -0.08898922 -0.0702435 -0.18347159 0.015504921 -0.027675014 0.19953807
-0.10867973 -0.13180147 -0.04591323 0.058525592 -0.18867435 -0.16480374 -0.11951286 -0.018506765
0.09525503 -0.11523062 0.04610962 -0.048563365 -0.23847812 0.17448573 -0.15648276 -0.18273714
-0.08505674 -0.3106926 -0.10508155 -0.042241186 0.0871407 -0.23380587 0.28763047 -0.025204176
0.2135448 -0.04168951 -0.024372736 -0.22867577 0.14134404 -0.00524578 -0.13644667 -0.071393475
0.14862813 -0.046865024 -0.0762574 -0.1986441 -0.05265574 -0.21060647 -0.20755206 -0.06962066
00000000: 724d 34bb 32b4 503d 10a1 febd 0158 debd
00000010: 8816 843d bb2a c73e 27d4 b43c dde8 b03d
00000020: ce56 a53c d4f2 083e d8cf b9bc f625 983d
00000030: 8c24 043e cdbb 1f3b fd62 f53c 4903 a13d
00000040: 86d9 013e 1d49 d9be f22a 40bd 6ef9 b93c
00000050: 5390 993b a9bd 9c3d 8d33 6c3e 4dde d5bd
00000060: 9c7d 04be 919d 56be 2279 6b3e d9af 133e
00000070: 292b 8e3e 2209 0fbe 8fe9 943d 0644 05be
00000080: 51cf 143c 6197 04be 3b3d 643b a849 74bd
00000090: 59cb cfbd 2355 6f3e 3f68 a0bd 0cd2 f03c
000000a0: 1742 c63c 84f9 0fbd 4e4f 643e c881 61be
000000b0: 5c0f 203e 96fb 0e3e da18 d63d 5b06 74bd
000000c0: 2f53 b6bd 9670 a6bd 42bd 5dbe 4a4c 9ebb
000000d0: 3b27 0bbe 7059 9dbc 75df 84bc f41a 983d
000000e0: 49f6 4bbe 966e da3e e000 9b3d e95b 92be
000000f0: 228d 3d3e 0262 753b 393c 86bc 2d57 32bd
00000100: c6f5 b53d c161 813e 6adc 223d 7939 333e
00000110: a1c0 c03c 3dc6 38be 7725 71bd 1983 dcbc
00000120: bc69 633e 1461 acbd 3148 8f3c 90c1 c33d
00000130: c34f d2bd 0733 483e bf08 913c 85ba febd
00000140: 9c8a 01be 15b5 12be 94fd 61be 2767 f93d
00000150: 5551 ff3c 07fd 593e a66b 2ebd 95f8 2bbe
00000160: 14bd e4bd 5005 71bc 2020 563e 3149 debd
00000170: 2685 b0bd 4047 763c 041c 00bd d70a 0e3c
00000180: d5de 163e 0800 79bd e959 183d be2b 79be
00000190: 5fbe e2bd 9eee c9bc b615 693d 20f2 053e
000001a0: 1790 a23d 26f9 1e3e ec67 2f3d af1a 333e
000001b0: a56c 723e b5c5 83be 6b23 113e a13d c93d
000001c0: 3c1d 11bd 4bd6 233d 820b db3d 27a2 a33e
000001d0: 5fec a13e d93a 0c3c 3e29 4bbe ec08 dabd
000001e0: 9688 89bd 6f26 c3bd 166f f6bd 25b6 663c
000001f0: 2303 78bd f8ac 873d 7b4f cabc dafb 0c3d
00000200: bcab 40be 4606 3a3d 3f91 6d3c e764 a73d
00000210: 607a 883e 1457 3ebd f133 bd3c 06b1 6dbe
00000220: 9fa0 0c3d b51f 973d 4962 a53d bc9e 863d
00000230: e8fc 5dbe a67a b53d 71f6 403e 71b7 163e
00000240: 7c58 d73d ec7f bc3d 86f3 f83d d957 5b3e
00000250: 6da7 163e faf2 a13e 7579 dd3d 1706 88bc
00000260: ac58 d7bb 1151 2cbd e013 873e 64b5 50bc
00000270: 32b2 0f3e 4ba9 d23d 47b8 573c 55b2 4ebe
00000280: deb7 bb3d aad6 1a3e 0d3a 143b a830 77be
00000290: 2ee1 9fbd ed17 fcbd e130 843e dbc0 323d
000002a0: 48f7 363e 5b19 60bc 17b2 90be ebd9 1fbe
000002b0: 9189 c4bd cf5d c8bd 3176 953c e1f6 2ebe
000002c0: 034d 1c3d e235 fe3c 83dc 6b3c 1942 8e3d
000002d0: 8de1 a43e 00ae 9d3d bb1b ca3d ada7 673d
000002e0: 1ac1 b4be 15f0 043d b595 503e 40ff 0f3e
000002f0: 16fb 8f3d 58f2 d13d c59e 003e 30e9 13bb
00000300: 96dd 24be e329 153e b90f 65bd 1991 193d
00000310: cf56 d8bd 49b5 cdbd 832f 95bd 2c9c 71be
00000320: 745e e33c 7762 3f3d a4f8 543e e0f5 d53d
00000330: 477e 1b3e 6431 633e 4518 e3bd c154 163e
00000340: 8e11 bcbd c59e 5b3e fb3f b6bd d3db 8fbd
00000350: fadf 3bbe 5a08 7e3c b6b6 e2bc b553 4c3e
00000360: 7a93 debd f7f6 06be 830f 3cbd 88b8 6f3d
00000370: d933 41be 50c2 28be 29c3 f4bd 809b 97bc
00000380: 1215 c33d 08fe ebbd 71dd 3c3d 61ea 46bd
00000390: 9c33 74be 63ac 323e 043d 20be 721f 3bbe
000003a0: 3a32 aebd 1a13 9fbe ff34 d7bd 1805 2dbd
000003b0: d376 b23d ce6a 6fbe 4d44 933e fd78 cebc
000003c0: 7dab 5a3e 9fc2 2abd 55a9 c7bc fb29 6abe
000003d0: 7ebc 103e cbe4 abbb adb8 0bbe be36 92bd
000003e0: f931 183e 8af5 3fbd d72c 9cbd 5c69 4bbe
000003f0: 8cad 57bd 39a9 57be 8788 54be 4795 8ebd

sequential_1/simple_rnn_1/simple_rnn_cell_1/Cast/ReadVariableOp/resource:0 f4 [1, 50]
0.3082864 0.031871203 -0.16554621 -0.18264371 0.2831852 0.2685234 -0.28002134 0.18261176
-0.31277594 0.18263501 0.09124904 0.04317814 -0.11161615 -0.07663183 0.19636424 0.14661624
0.03553177 0.13448307 0.09343565 -0.1646748 0.048129667 0.03784336 0.23560773 -0.3290377
0.20269944 -0.20223953 -0.050256632 -0.17529386 0.16966456 -0.16813594 -0.15882239 0.32741907
-0.21283118 -0.15970716 -0.10260624 -0.35714477 -0.14097719 0.23092657 -0.20672733 0.042421862
-0.22281492 -0.030894378 0.16548134 -0.08052954 0.08007228 0.17176415 -0.1868365 -0.24984305
-0.39250514 -0.13662672
00000000: b7d7 9d3e 618b 023d f284 29be f406 3bbe
00000010: a7fd 903e e67b 893e f55e 8fbe 94fe 3a3e
00000020: 2b24 a0be ac04 3b3e c7e0 ba3d 90db 303d
00000030: 0297 e4bd 26f1 9cbd b513 493e 9122 163e
00000040: c389 113d eeb5 093e 315b bf3d 83a0 28be
00000050: 9d23 453d a401 1b3d 2743 713e a177 a8be
00000060: 7190 4f3e e117 4fbe e6d9 4dbd 3c80 33be
00000070: 8cbc 2d3e d42b 2cbe 56a2 22be 79a3 a73e
00000080: 6bf0 59be 468a 23be 3823 d2bd aedb b6be
00000090: 535c 10be 0478 6c3e 54b0 53be 8cc2 2d3d
000000a0: 9829 64be 3516 fdbc f173 293e acec a4bd
000000b0: effc a33d f1e2 2f3e 1152 3fbe dbd6 7fbe
000000c0: 6ff6 c8be e0e7 0bbe

sequential_1/dense_1/Cast/ReadVariableOp:0 f4 [50, 1]
-0.23740517 -0.11267745 -0.35715842 0.1658449 0.3854201 0.25349736 0.17788425 0.24640992
-0.319273 0.16247787 -0.11824066 -0.18328787 0.20549603 0.30216137 0.08412768 0.12889372
-0.16577858 -0.17247537 0.0012124085 0.09844781 0.096196055 0.09557606 0.24475202 -0.013357158
0.16725841 0.069742024 0.12783991 -0.023276815 0.21367261 -0.11270674 0.065631784 0.31779554
-0.29850236 -0.23211001 -0.025316063 -0.15104139 0.036604762 0.25107402 -0.14301796 0.14631724
-0.33109555 0.07785346 0.33503717 -0.1537479 0.1712541 0.048789904 0.2542509 0.07617058
-0.22675373 -0.0018135891
00000000: 571a 73be 6fc3 e6bd 78dd b6be 3fd3 293e
00000010: c955 c53e 68ca 813e 4a27 363e e252 7c3e
00000020: c077 a3be 9960 263e 2928 f2bd d1af 3bbe
00000030: 8d6d 523e e5b4 9a3e 224b ac3d b7fc 033e
00000040: dcc1 29be 629d 30be aee9 9e3a 019f c93d
00000050: 7002 c53d 62bd c33d 46a0 7a3e fbd7 5abc
00000060: ca45 2b3e e8d4 8e3d 77e8 023e 05af bebc
00000070: fecc 5a3e cbd2 e6bd f569 863d 19b6 a23e
00000080: 4dd5 98be 3fae 6dbe a263 cfbc 98aa 1abe
00000090: e0ee 153d c68c 803e 4d73 12be 30d4 153e
000000a0: 5b85 a9be a371 9f3d fe89 ab3e 1770 1dbe
000000b0: 3c5d 2f3e ecd7 473d 2d2d 823e 52ff 9b3d
000000c0: 2132 68be f4b5 edba
